node {
  name: "global_step/Initializer/zeros"
  op: "Const"
  attr {
    key: "_class"
    value {
      list {
        s: "loc:@global_step"
      }
    }
  }
  attr {
    key: "_output_shapes"
    value {
      list {
        shape {
        }
      }
    }
  }
  attr {
    key: "dtype"
    value {
      type: DT_INT64
    }
  }
  attr {
    key: "value"
    value {
      tensor {
        dtype: DT_INT64
        tensor_shape {
        }
        int64_val: 0
      }
    }
  }
}
node {
  name: "global_step"
  op: "VariableV2"
  attr {
    key: "_class"
    value {
      list {
        s: "loc:@global_step"
      }
    }
  }
  attr {
    key: "_output_shapes"
    value {
      list {
        shape {
        }
      }
    }
  }
  attr {
    key: "container"
    value {
      s: ""
    }
  }
  attr {
    key: "dtype"
    value {
      type: DT_INT64
    }
  }
  attr {
    key: "shape"
    value {
      shape {
      }
    }
  }
  attr {
    key: "shared_name"
    value {
      s: ""
    }
  }
}
node {
  name: "global_step/Assign"
  op: "Assign"
  input: "global_step"
  input: "global_step/Initializer/zeros"
  attr {
    key: "T"
    value {
      type: DT_INT64
    }
  }
  attr {
    key: "_class"
    value {
      list {
        s: "loc:@global_step"
      }
    }
  }
  attr {
    key: "_output_shapes"
    value {
      list {
        shape {
        }
      }
    }
  }
  attr {
    key: "use_locking"
    value {
      b: true
    }
  }
  attr {
    key: "validate_shape"
    value {
      b: true
    }
  }
}
node {
  name: "global_step/read"
  op: "Identity"
  input: "global_step"
  attr {
    key: "T"
    value {
      type: DT_INT64
    }
  }
  attr {
    key: "_class"
    value {
      list {
        s: "loc:@global_step"
      }
    }
  }
  attr {
    key: "_output_shapes"
    value {
      list {
        shape {
        }
      }
    }
  }
}
node {
  name: "global_step/IsVariableInitialized"
  op: "IsVariableInitialized"
  input: "global_step"
  attr {
    key: "_class"
    value {
      list {
        s: "loc:@global_step"
      }
    }
  }
  attr {
    key: "_output_shapes"
    value {
      list {
        shape {
        }
      }
    }
  }
  attr {
    key: "dtype"
    value {
      type: DT_INT64
    }
  }
}
node {
  name: "global_step/cond/Switch"
  op: "Switch"
  input: "global_step/IsVariableInitialized"
  input: "global_step/IsVariableInitialized"
  attr {
    key: "T"
    value {
      type: DT_BOOL
    }
  }
  attr {
    key: "_output_shapes"
    value {
      list {
        shape {
        }
        shape {
        }
      }
    }
  }
}
node {
  name: "global_step/cond/switch_t"
  op: "Identity"
  input: "global_step/cond/Switch:1"
  attr {
    key: "T"
    value {
      type: DT_BOOL
    }
  }
  attr {
    key: "_output_shapes"
    value {
      list {
        shape {
        }
      }
    }
  }
}
node {
  name: "global_step/cond/switch_f"
  op: "Identity"
  input: "global_step/cond/Switch"
  attr {
    key: "T"
    value {
      type: DT_BOOL
    }
  }
  attr {
    key: "_output_shapes"
    value {
      list {
        shape {
        }
      }
    }
  }
}
node {
  name: "global_step/cond/pred_id"
  op: "Identity"
  input: "global_step/IsVariableInitialized"
  attr {
    key: "T"
    value {
      type: DT_BOOL
    }
  }
  attr {
    key: "_output_shapes"
    value {
      list {
        shape {
        }
      }
    }
  }
}
node {
  name: "global_step/cond/read"
  op: "Identity"
  input: "global_step/cond/read/Switch:1"
  attr {
    key: "T"
    value {
      type: DT_INT64
    }
  }
  attr {
    key: "_output_shapes"
    value {
      list {
        shape {
        }
      }
    }
  }
}
node {
  name: "global_step/cond/read/Switch"
  op: "RefSwitch"
  input: "global_step"
  input: "global_step/cond/pred_id"
  attr {
    key: "T"
    value {
      type: DT_INT64
    }
  }
  attr {
    key: "_class"
    value {
      list {
        s: "loc:@global_step"
      }
    }
  }
  attr {
    key: "_output_shapes"
    value {
      list {
        shape {
        }
        shape {
        }
      }
    }
  }
}
node {
  name: "global_step/cond/Switch_1"
  op: "Switch"
  input: "global_step/Initializer/zeros"
  input: "global_step/cond/pred_id"
  attr {
    key: "T"
    value {
      type: DT_INT64
    }
  }
  attr {
    key: "_class"
    value {
      list {
        s: "loc:@global_step"
      }
    }
  }
  attr {
    key: "_output_shapes"
    value {
      list {
        shape {
        }
        shape {
        }
      }
    }
  }
}
node {
  name: "global_step/cond/Merge"
  op: "Merge"
  input: "global_step/cond/Switch_1"
  input: "global_step/cond/read"
  attr {
    key: "N"
    value {
      i: 2
    }
  }
  attr {
    key: "T"
    value {
      type: DT_INT64
    }
  }
  attr {
    key: "_output_shapes"
    value {
      list {
        shape {
        }
        shape {
        }
      }
    }
  }
}
node {
  name: "global_step/add/y"
  op: "Const"
  attr {
    key: "_output_shapes"
    value {
      list {
        shape {
        }
      }
    }
  }
  attr {
    key: "dtype"
    value {
      type: DT_INT64
    }
  }
  attr {
    key: "value"
    value {
      tensor {
        dtype: DT_INT64
        tensor_shape {
        }
        int64_val: 0
      }
    }
  }
}
node {
  name: "global_step/add"
  op: "Add"
  input: "global_step/cond/Merge"
  input: "global_step/add/y"
  attr {
    key: "T"
    value {
      type: DT_INT64
    }
  }
  attr {
    key: "_output_shapes"
    value {
      list {
        shape {
        }
      }
    }
  }
}
node {
  name: "tensors/component_0"
  op: "Const"
  device: "/device:CPU:0"
  attr {
    key: "_output_shapes"
    value {
      list {
        shape {
          dim {
            size: 3966
          }
        }
      }
    }
  }
  attr {
    key: "dtype"
    value {
      type: DT_STRING
    }
  }
  attr {
    key: "value"
    value {
      tensor {
        dtype: DT_STRING
        tensor_shape {
          dim {
            size: 3966
          }
        }
        string_val: "Boston College"
        string_val: "Boston College"
        string_val: "Boston College"
        string_val: "Boston College"
        string_val: "Boston College"
        string_val: "Georgia Tech"
        string_val: "Georgia Tech"
        string_val: "Georgia Tech"
        string_val: "Georgia Tech"
        string_val: "Georgia Tech"
        string_val: "George Washington"
        string_val: "George Washington"
        string_val: "Kansas"
        string_val: "Kansas"
        string_val: "Maryland"
        string_val: "Maryland"
        string_val: "Maryland"
        string_val: "Maryland"
        string_val: "Maryland"
        string_val: "Maryland"
        string_val: "Notre Dame"
        string_val: "Notre Dame"
        string_val: "Notre Dame"
        string_val: "Notre Dame"
        string_val: "Kentucky"
        string_val: "Kentucky"
        string_val: "Kentucky"
        string_val: "Kentucky"
        string_val: "Kentucky"
        string_val: "Kentucky"
        string_val: "Kentucky"
        string_val: "Kentucky"
        string_val: "Kentucky"
        string_val: "Kentucky"
        string_val: "Kentucky"
        string_val: "Kentucky"
        string_val: "Kentucky"
        string_val: "Kentucky"
        string_val: "Alabama"
        string_val: "Arkansas"
        string_val: "Arkansas"
        string_val: "Arkansas"
        string_val: "Arkansas"
        string_val: "Arkansas"
        string_val: "Auburn"
        string_val: "Auburn"
        string_val: "Butler"
        string_val: "Butler"
        string_val: "Butler"
        string_val: "Butler"
        string_val: "California"
        string_val: "California"
        string_val: "California"
        string_val: "California"
        string_val: "California"
        string_val: "Cincinnati"
        string_val: "Cincinnati"
        string_val: "Cincinnati"
        string_val: "Cincinnati"
        string_val: "Cincinnati"
        string_val: "Cincinnati"
        string_val: "Cincinnati"
        string_val: "Cornell"
        string_val: "Cornell"
        string_val: "Dayton"
        string_val: "Dayton"
        string_val: "DePaul"
        string_val: "DePaul"
        string_val: "Eastern Mich."
        string_val: "Eastern Mich."
        string_val: "Florida"
        string_val: "Florida"
        string_val: "Florida"
        string_val: "Florida"
        string_val: "Florida"
        string_val: "Florida"
        string_val: "Florida"
        string_val: "Florida"
        string_val: "Florida"
        string_val: "Florida"
        string_val: "Florida"
        string_val: "Florida St."
        string_val: "George Mason"
        string_val: "Illinois"
        string_val: "Illinois"
        string_val: "Illinois"
        string_val: "Illinois"
        string_val: "Illinois"
        string_val: "Illinois"
        string_val: "Indiana"
        string_val: "Indiana"
        string_val: "Indiana"
        string_val: "Indiana"
        string_val: "Indiana"
        string_val: "Iowa St."
        string_val: "Iowa St."
        string_val: "Iowa St."
        string_val: "James Madison"
        string_val: "Kansas St."
        string_val: "La Salle"
        string_val: "Louisville"
        string_val: "Louisville"
        string_val: "Louisville"
        string_val: "Louisville"
        string_val: "Louisville"
        string_val: "Louisville"
        string_val: "Louisville"
        string_val: "Louisville"
        string_val: "Louisville"
        string_val: "Louisville"
        string_val: "Louisville"
        string_val: "Louisville"
        string_val: "Louisville"
        string_val: "Louisville"
        string_val: "LSU"
        string_val: "LSU"
        string_val: "LSU"
        string_val: "LSU"
        string_val: "Memphis"
        string_val: "Miami (FL)"
        string_val: "Miami (FL)"
        string_val: "Miami (FL)"
        string_val: "Mt. St. Mary\'s"
        string_val: "Michigan St."
        string_val: "Michigan St."
        string_val: "Michigan St."
        string_val: "Michigan St."
        string_val: "Michigan St."
        string_val: "Michigan St."
        string_val: "Michigan St."
        string_val: "Michigan St."
        string_val: "Michigan St."
        string_val: "Michigan St."
        string_val: "Old Dominion"
        string_val: "Old Dominion"
        string_val: "Ohio St."
        string_val: "Ohio St."
        string_val: "Ohio St."
        string_val: "Ohio St."
        string_val: "Ohio St."
        string_val: "Ohio St."
        string_val: "Pacific"
        string_val: "Penn St."
        string_val: "Purdue"
        string_val: "Purdue"
        string_val: "Purdue"
        string_val: "Siena"
        string_val: "Siena"
        string_val: "Southern Ill."
        string_val: "Southern Ill."
        string_val: "St. John\'s (NY)"
        string_val: "St. John\'s (NY)"
        string_val: "Saint Louis"
        string_val: "SMU"
        string_val: "SMU"
        string_val: "Syracuse"
        string_val: "Syracuse"
        string_val: "Syracuse"
        string_val: "Syracuse"
        string_val: "Syracuse"
        string_val: "Syracuse"
        string_val: "Syracuse"
        string_val: "Syracuse"
        string_val: "Syracuse"
        string_val: "Syracuse"
        string_val: "Syracuse"
        string_val: "Syracuse"
        string_val: "Syracuse"
        string_val: "Syracuse"
        string_val: "Syracuse"
        string_val: "Syracuse"
        string_val: "Syracuse"
        string_val: "Syracuse"
        string_val: "Syracuse"
        string_val: "Syracuse"
        string_val: "Syracuse"
        string_val: "Syracuse"
        string_val: "Syracuse"
        string_val: "TCU"
        string_val: "Temple"
        string_val: "Temple"
        string_val: "Temple"
        string_val: "Temple"
        string_val: "Temple"
        string_val: "Temple"
        string_val: "Temple"
        string_val: "Temple"
        string_val: "Temple"
        string_val: "Temple"
        string_val: "Temple"
        string_val: "Temple"
        string_val: "Temple"
        string_val: "Texas"
        string_val: "Texas"
        string_val: "Texas"
        string_val: "Texas"
        string_val: "Texas"
        string_val: "Texas"
        string_val: "Texas"
        string_val: "Texas"
        string_val: "Texas"
        string_val: "Texas Tech"
        string_val: "Texas Tech"
        string_val: "Texas Tech"
        string_val: "Texas Tech"
        string_val: "Georgia"
        string_val: "Georgia"
        string_val: "North Carolina"
        string_val: "North Carolina"
        string_val: "North Carolina"
        string_val: "North Carolina"
        string_val: "North Carolina"
        string_val: "North Carolina"
        string_val: "North Carolina"
        string_val: "North Carolina"
        string_val: "North Carolina"
        string_val: "North Carolina"
        string_val: "North Carolina"
        string_val: "North Carolina"
        string_val: "North Carolina"
        string_val: "North Carolina"
        string_val: "North Carolina"
        string_val: "North Carolina"
        string_val: "North Carolina"
        string_val: "North Carolina"
        string_val: "North Carolina"
        string_val: "North Carolina"
        string_val: "North Carolina"
        string_val: "North Carolina"
        string_val: "North Carolina"
        string_val: "North Carolina"
        string_val: "North Carolina"
        string_val: "North Carolina"
        string_val: "North Carolina"
        string_val: "North Carolina"
        string_val: "North Carolina"
        string_val: "North Carolina"
        string_val: "North Carolina"
        string_val: "North Carolina"
        string_val: "North Carolina"
        string_val: "North Carolina"
        string_val: "North Carolina"
        string_val: "UNI"
        string_val: "New Mexico"
        string_val: "New Mexico"
        string_val: "New Mexico"
        string_val: "Rhode Island"
        string_val: "Rhode Island"
        string_val: "Rhode Island"
        string_val: "Southern California"
        string_val: "Southern California"
        string_val: "Southern California"
        string_val: "Southern California"
        string_val: "Southern California"
        string_val: "Utah St."
        string_val: "Virginia"
        string_val: "Virginia"
        string_val: "Virginia"
        string_val: "Virginia"
        string_val: "Virginia"
        string_val: "Vanderbilt"
        string_val: "Vanderbilt"
        string_val: "Vanderbilt"
        string_val: "Wisconsin"
        string_val: "Wisconsin"
        string_val: "Wisconsin"
        string_val: "Wisconsin"
        string_val: "Wisconsin"
        string_val: "Western Ky."
        string_val: "Washington St."
        string_val: "Washington St."
        string_val: "Washington St."
        string_val: "West Virginia"
        string_val: "West Virginia"
        string_val: "West Virginia"
        string_val: "West Virginia"
        string_val: "West Virginia"
        string_val: "West Virginia"
        string_val: "West Virginia"
        string_val: "West Virginia"
        string_val: "West Virginia"
        string_val: "West Virginia"
        string_val: "West Virginia"
        string_val: "Xavier"
        string_val: "Xavier"
        string_val: "Xavier"
        string_val: "Xavier"
        string_val: "Xavier"
        string_val: "Charlotte"
        string_val: "Clemson"
        string_val: "Clemson"
        string_val: "Clemson"
        string_val: "Cleveland St."
        string_val: "Cleveland St."
        string_val: "Colorado"
        string_val: "UConn"
        string_val: "UConn"
        string_val: "UConn"
        string_val: "UConn"
        string_val: "UConn"
        string_val: "UConn"
        string_val: "UConn"
        string_val: "UConn"
        string_val: "UConn"
        string_val: "UConn"
        string_val: "UConn"
        string_val: "UConn"
        string_val: "UConn"
        string_val: "UConn"
        string_val: "UConn"
        string_val: "UConn"
        string_val: "UConn"
        string_val: "Coppin St."
        string_val: "Duke"
        string_val: "Duke"
        string_val: "Duke"
        string_val: "Duke"
        string_val: "Duke"
        string_val: "Duke"
        string_val: "Duke"
        string_val: "Duke"
        string_val: "Duke"
        string_val: "Duke"
        string_val: "Duke"
        string_val: "Duke"
        string_val: "Duke"
        string_val: "Duke"
        string_val: "Duke"
        string_val: "Duke"
        string_val: "Duke"
        string_val: "Duke"
        string_val: "Duke"
        string_val: "Duke"
        string_val: "Duke"
        string_val: "Duke"
        string_val: "Duke"
        string_val: "Duke"
        string_val: "Duke"
        string_val: "Duke"
        string_val: "Duke"
        string_val: "Duke"
        string_val: "Duke"
        string_val: "Duke"
        string_val: "Duke"
        string_val: "Duke"
        string_val: "Duke"
        string_val: "Duke"
        string_val: "Duke"
        string_val: "Duke"
        string_val: "Duke"
        string_val: "Duke"
        string_val: "Duke"
        string_val: "Duke"
        string_val: "Duke"
        string_val: "Duke"
        string_val: "Duke"
        string_val: "Duke"
        string_val: "Duke"
        string_val: "Gonzaga"
        string_val: "Gonzaga"
        string_val: "Georgetown"
        string_val: "Georgetown"
        string_val: "Georgetown"
        string_val: "Georgetown"
        string_val: "Georgetown"
        string_val: "Georgetown"
        string_val: "Georgetown"
        string_val: "Georgetown"
        string_val: "Georgetown"
        string_val: "Georgetown"
        string_val: "Georgetown"
        string_val: "Georgetown"
        string_val: "Georgetown"
        string_val: "Georgetown"
        string_val: "Georgetown"
        string_val: "Georgetown"
        string_val: "Seton Hall"
        string_val: "Seton Hall"
        string_val: "Seton Hall"
        string_val: "Seton Hall"
        string_val: "Seton Hall"
        string_val: "Harvard"
        string_val: "Iowa"
        string_val: "Iowa"
        string_val: "Iowa"
        string_val: "Saint Joseph\'s"
        string_val: "Loyola Chicago"
        string_val: "Loyola Chicago"
        string_val: "Marquette"
        string_val: "Marquette"
        string_val: "Marquette"
        string_val: "Marquette"
        string_val: "Marquette"
        string_val: "Marquette"
        string_val: "Massachusetts"
        string_val: "Massachusetts"
        string_val: "Massachusetts"
        string_val: "Massachusetts"
        string_val: "Massachusetts"
        string_val: "Massachusetts"
        string_val: "Massachusetts"
        string_val: "Massachusetts"
        string_val: "Massachusetts"
        string_val: "Massachusetts"
        string_val: "Michigan"
        string_val: "Minnesota"
        string_val: "Minnesota"
        string_val: "Missouri"
        string_val: "Missouri"
        string_val: "Missouri"
        string_val: "Missouri St."
        string_val: "Missouri St."
        string_val: "Mississippi St."
        string_val: "Navy"
        string_val: "Navy"
        string_val: "Navy"
        string_val: "NC State"
        string_val: "NC State"
        string_val: "NC State"
        string_val: "NC State"
        string_val: "NC State"
        string_val: "NC State"
        string_val: "NC State"
        string_val: "New Mexico St."
        string_val: "Northwestern St."
        string_val: "Oklahoma"
        string_val: "Oklahoma"
        string_val: "Oklahoma"
        string_val: "Oklahoma"
        string_val: "Oklahoma"
        string_val: "Oklahoma"
        string_val: "Oklahoma"
        string_val: "Oklahoma St."
        string_val: "Oklahoma St."
        string_val: "Oklahoma St."
        string_val: "Oklahoma St."
        string_val: "Oklahoma St."
        string_val: "Oklahoma St."
        string_val: "Oklahoma St."
        string_val: "Oklahoma St."
        string_val: "Oklahoma St."
        string_val: "Oklahoma St."
        string_val: "Oklahoma St."
        string_val: "Penn"
        string_val: "Pepperdine"
        string_val: "Pittsburgh"
        string_val: "Pittsburgh"
        string_val: "Pittsburgh"
        string_val: "Princeton"
        string_val: "Richmond"
        string_val: "Richmond"
        string_val: "Richmond"
        string_val: "Richmond"
        string_val: "Stanford"
        string_val: "Stanford"
        string_val: "Tennessee"
        string_val: "Tennessee"
        string_val: "Tennessee"
        string_val: "Tulsa"
        string_val: "Tulsa"
        string_val: "Tulsa"
        string_val: "Tulsa"
        string_val: "Texas A&M"
        string_val: "UCLA"
        string_val: "UCLA"
        string_val: "UCLA"
        string_val: "UCLA"
        string_val: "UCLA"
        string_val: "UTSA"
        string_val: "Villanova"
        string_val: "Villanova"
        string_val: "Villanova"
        string_val: "Villanova"
        string_val: "Villanova"
        string_val: "Villanova"
        string_val: "Villanova"
        string_val: "Villanova"
        string_val: "Wake Forest"
        string_val: "Wake Forest"
        string_val: "Wake Forest"
        string_val: "Wake Forest"
        string_val: "Wake Forest"
        string_val: "Washington"
        string_val: "Washington"
        string_val: "Washington"
        string_val: "Washington"
        string_val: "Washington"
        string_val: "Washington"
        string_val: "Washington"
        string_val: "Boston College"
        string_val: "Kansas"
        string_val: "Kansas"
        string_val: "Kansas"
        string_val: "Kansas"
        string_val: "Kansas"
        string_val: "Kansas"
        string_val: "Kansas"
        string_val: "Kansas"
        string_val: "Kansas"
        string_val: "Kansas"
        string_val: "Kansas"
        string_val: "Kansas"
        string_val: "Kansas"
        string_val: "Kansas"
        string_val: "Kansas"
        string_val: "Kansas"
        string_val: "Kansas"
        string_val: "Kansas"
        string_val: "Kansas"
        string_val: "Kansas"
        string_val: "Kansas"
        string_val: "Kansas"
        string_val: "Kansas"
        string_val: "Kansas"
        string_val: "Kansas"
        string_val: "Kansas"
        string_val: "Kansas"
        string_val: "Kansas"
        string_val: "Kansas"
        string_val: "Kansas"
        string_val: "Kansas"
        string_val: "Kansas"
        string_val: "Kansas"
        string_val: "Kansas"
        string_val: "Kansas"
        string_val: "Kansas"
        string_val: "Kansas"
        string_val: "Kansas"
        string_val: "Kansas"
        string_val: "Kansas"
        string_val: "Kansas"
        string_val: "Kansas"
        string_val: "Kansas"
        string_val: "Kansas"
        string_val: "Maryland"
        string_val: "Maryland"
        string_val: "Maryland"
        string_val: "Maryland"
        string_val: "Maryland"
        string_val: "Maryland"
        string_val: "Maryland"
        string_val: "Maryland"
        string_val: "Maryland"
        string_val: "Maryland"
        string_val: "Maryland"
        string_val: "Kentucky"
        string_val: "Kentucky"
        string_val: "Kentucky"
        string_val: "Kentucky"
        string_val: "Kentucky"
        string_val: "Kentucky"
        string_val: "Kentucky"
        string_val: "Kentucky"
        string_val: "Kentucky"
        string_val: "Kentucky"
        string_val: "Kentucky"
        string_val: "Kentucky"
        string_val: "Virginia Tech"
        string_val: "Alabama"
        string_val: "Alabama"
        string_val: "Alabama"
        string_val: "Alabama"
        string_val: "Alabama"
        string_val: "Alabama"
        string_val: "Alabama"
        string_val: "Alabama"
        string_val: "Alabama"
        string_val: "Alabama"
        string_val: "Alabama"
        string_val: "Arkansas"
        string_val: "Arkansas"
        string_val: "Arkansas"
        string_val: "Arkansas"
        string_val: "Arkansas"
        string_val: "Arkansas"
        string_val: "Arkansas"
        string_val: "Arkansas"
        string_val: "Arkansas"
        string_val: "Arizona St."
        string_val: "Arizona St."
        string_val: "Baylor"
        string_val: "Baylor"
        string_val: "Baylor"
        string_val: "BYU"
        string_val: "California"
        string_val: "California"
        string_val: "California"
        string_val: "Cincinnati"
        string_val: "Cincinnati"
        string_val: "Cincinnati"
        string_val: "Cincinnati"
        string_val: "Cincinnati"
        string_val: "Cincinnati"
        string_val: "Davidson"
        string_val: "Davidson"
        string_val: "Davidson"
        string_val: "Dayton"
        string_val: "Dayton"
        string_val: "Dayton"
        string_val: "Dayton"
        string_val: "DePaul"
        string_val: "DePaul"
        string_val: "DePaul"
        string_val: "Florida"
        string_val: "Florida"
        string_val: "Florida"
        string_val: "Florida"
        string_val: "Florida"
        string_val: "Florida"
        string_val: "Florida"
        string_val: "Florida"
        string_val: "Florida St."
        string_val: "Florida St."
        string_val: "Florida St."
        string_val: "Illinois"
        string_val: "Illinois"
        string_val: "Illinois"
        string_val: "Illinois"
        string_val: "Illinois"
        string_val: "Illinois"
        string_val: "Illinois"
        string_val: "Illinois"
        string_val: "Illinois"
        string_val: "Indiana"
        string_val: "Indiana"
        string_val: "Indiana"
        string_val: "Indiana"
        string_val: "Indiana"
        string_val: "Indiana"
        string_val: "Indiana"
        string_val: "Indiana"
        string_val: "Indiana"
        string_val: "Indiana"
        string_val: "Indiana"
        string_val: "Indiana"
        string_val: "Iowa St."
        string_val: "Iowa St."
        string_val: "Iowa St."
        string_val: "Kansas St."
        string_val: "Kansas St."
        string_val: "Kansas St."
        string_val: "Kansas St."
        string_val: "Louisville"
        string_val: "Louisville"
        string_val: "Louisville"
        string_val: "Louisville"
        string_val: "Louisville"
        string_val: "Louisville"
        string_val: "LSU"
        string_val: "LSU"
        string_val: "Memphis"
        string_val: "Memphis"
        string_val: "Memphis"
        string_val: "Memphis"
        string_val: "Memphis"
        string_val: "Memphis"
        string_val: "Memphis"
        string_val: "Miami (FL)"
        string_val: "Miami (FL)"
        string_val: "Michigan St."
        string_val: "Michigan St."
        string_val: "Michigan St."
        string_val: "Michigan St."
        string_val: "Michigan St."
        string_val: "Michigan St."
        string_val: "Michigan St."
        string_val: "Michigan St."
        string_val: "Michigan St."
        string_val: "Michigan St."
        string_val: "Nevada"
        string_val: "Nevada"
        string_val: "Old Dominion"
        string_val: "Oregon"
        string_val: "Oregon"
        string_val: "Oregon"
        string_val: "Ohio St."
        string_val: "Ohio St."
        string_val: "Ohio St."
        string_val: "Ohio St."
        string_val: "Ohio St."
        string_val: "Ohio St."
        string_val: "Ohio St."
        string_val: "Purdue"
        string_val: "Purdue"
        string_val: "Purdue"
        string_val: "Purdue"
        string_val: "Purdue"
        string_val: "Purdue"
        string_val: "Purdue"
        string_val: "Purdue"
        string_val: "Purdue"
        string_val: "Purdue"
        string_val: "Purdue"
        string_val: "Robert Morris"
        string_val: "SFA"
        string_val: "Siena"
        string_val: "Southern Ill."
        string_val: "St. John\'s (NY)"
        string_val: "St. John\'s (NY)"
        string_val: "St. John\'s (NY)"
        string_val: "St. John\'s (NY)"
        string_val: "Saint Mary\'s (CA)"
        string_val: "Saint Mary\'s (CA)"
        string_val: "Syracuse"
        string_val: "Syracuse"
        string_val: "Syracuse"
        string_val: "Syracuse"
        string_val: "Syracuse"
        string_val: "Temple"
        string_val: "Temple"
        string_val: "Texas"
        string_val: "Texas"
        string_val: "Texas"
        string_val: "Texas"
        string_val: "Texas"
        string_val: "Texas"
        string_val: "Texas"
        string_val: "Texas"
        string_val: "Texas"
        string_val: "Texas"
        string_val: "Texas"
        string_val: "Texas"
        string_val: "UAB"
        string_val: "UAB"
        string_val: "Louisiana"
        string_val: "North Carolina"
        string_val: "North Carolina"
        string_val: "North Carolina"
        string_val: "North Carolina"
        string_val: "North Carolina"
        string_val: "North Carolina"
        string_val: "North Carolina"
        string_val: "North Carolina"
        string_val: "North Carolina"
        string_val: "North Carolina"
        string_val: "North Carolina"
        string_val: "North Carolina"
        string_val: "North Carolina"
        string_val: "North Carolina"
        string_val: "North Carolina"
        string_val: "North Carolina"
        string_val: "New Orleans"
        string_val: "South Fla."
        string_val: "South Fla."
        string_val: "Virginia"
        string_val: "Vermont"
        string_val: "Vanderbilt"
        string_val: "Vanderbilt"
        string_val: "Vanderbilt"
        string_val: "Vanderbilt"
        string_val: "VCU"
        string_val: "VCU"
        string_val: "Wisconsin"
        string_val: "Wisconsin"
        string_val: "Western Ky."
        string_val: "West Virginia"
        string_val: "West Virginia"
        string_val: "Xavier"
        string_val: "Xavier"
        string_val: "Xavier"
        string_val: "Xavier"
        string_val: "Xavier"
        string_val: "Albany (NY)"
        string_val: "Arizona"
        string_val: "Arizona"
        string_val: "Arizona"
        string_val: "Arizona"
        string_val: "Arizona"
        string_val: "Arizona"
        string_val: "Arizona"
        string_val: "Arizona"
        string_val: "Arizona"
        string_val: "Arizona"
        string_val: "Arizona"
        string_val: "Arizona"
        string_val: "Arizona"
        string_val: "Arizona"
        string_val: "Arizona"
        string_val: "Arizona"
        string_val: "Arizona"
        string_val: "Ark.-Pine Bluff"
        string_val: "Bradley"
        string_val: "Bradley"
        string_val: "Bucknell"
        string_val: "Charlotte"
        string_val: "Chattanooga"
        string_val: "Chattanooga"
        string_val: "Clemson"
        string_val: "Col. of Charleston"
        string_val: "UConn"
        string_val: "UConn"
        string_val: "UConn"
        string_val: "UConn"
        string_val: "UConn"
        string_val: "UConn"
        string_val: "UConn"
        string_val: "UConn"
        string_val: "UConn"
        string_val: "UConn"
        string_val: "UConn"
        string_val: "UConn"
        string_val: "UConn"
        string_val: "UConn"
        string_val: "UConn"
        string_val: "UConn"
        string_val: "UConn"
        string_val: "UConn"
        string_val: "Creighton"
        string_val: "Creighton"
        string_val: "Duke"
        string_val: "Duke"
        string_val: "Duke"
        string_val: "Duke"
        string_val: "Duke"
        string_val: "Duke"
        string_val: "Duke"
        string_val: "Duke"
        string_val: "Duke"
        string_val: "Duke"
        string_val: "Duke"
        string_val: "Duke"
        string_val: "Duke"
        string_val: "Duke"
        string_val: "Duke"
        string_val: "Duke"
        string_val: "Duke"
        string_val: "Duke"
        string_val: "Duke"
        string_val: "Duke"
        string_val: "Duke"
        string_val: "Evansville"
        string_val: "FGCU"
        string_val: "FGCU"
        string_val: "Georgia St."
        string_val: "Gonzaga"
        string_val: "Gonzaga"
        string_val: "Gonzaga"
        string_val: "Gonzaga"
        string_val: "Gonzaga"
        string_val: "Gonzaga"
        string_val: "Gonzaga"
        string_val: "Georgetown"
        string_val: "Georgetown"
        string_val: "Georgetown"
        string_val: "Georgetown"
        string_val: "Georgetown"
        string_val: "Georgetown"
        string_val: "Georgetown"
        string_val: "Georgetown"
        string_val: "Georgetown"
        string_val: "Georgetown"
        string_val: "Georgetown"
        string_val: "Seton Hall"
        string_val: "Seton Hall"
        string_val: "Seton Hall"
        string_val: "Seton Hall"
        string_val: "Seton Hall"
        string_val: "Hampton"
        string_val: "Illinois St."
        string_val: "Iowa"
        string_val: "Saint Joseph\'s"
        string_val: "Kent St."
        string_val: "Miami (OH)"
        string_val: "Miami (OH)"
        string_val: "Marquette"
        string_val: "Marquette"
        string_val: "Michigan"
        string_val: "Michigan"
        string_val: "Michigan"
        string_val: "Michigan"
        string_val: "Michigan"
        string_val: "Michigan"
        string_val: "Michigan"
        string_val: "Michigan"
        string_val: "Milwaukee"
        string_val: "Milwaukee"
        string_val: "Minnesota"
        string_val: "Ole Miss"
        string_val: "Missouri"
        string_val: "Missouri St."
        string_val: "Mississippi St."
        string_val: "Mississippi St."
        string_val: "Mississippi St."
        string_val: "Murray St."
        string_val: "NC State"
        string_val: "NC State"
        string_val: "NC State"
        string_val: "NC State"
        string_val: "NC State"
        string_val: "NC State"
        string_val: "NC State"
        string_val: "NC State"
        string_val: "NC State"
        string_val: "New Mexico St."
        string_val: "New Mexico St."
        string_val: "Ohio"
        string_val: "Ohio"
        string_val: "Oklahoma"
        string_val: "Oklahoma"
        string_val: "Oklahoma"
        string_val: "Oklahoma"
        string_val: "Oklahoma"
        string_val: "Oklahoma"
        string_val: "Oklahoma St."
        string_val: "Oklahoma St."
        string_val: "Oklahoma St."
        string_val: "Austin Peay"
        string_val: "Pittsburgh"
        string_val: "Pittsburgh"
        string_val: "Pittsburgh"
        string_val: "Pittsburgh"
        string_val: "Providence"
        string_val: "Providence"
        string_val: "Providence"
        string_val: "Providence"
        string_val: "Providence"
        string_val: "Providence"
        string_val: "Providence"
        string_val: "San Diego St."
        string_val: "San Diego St."
        string_val: "San Diego St."
        string_val: "San Diego St."
        string_val: "Stanford"
        string_val: "Stanford"
        string_val: "Stanford"
        string_val: "Stanford"
        string_val: "Stanford"
        string_val: "Stanford"
        string_val: "Stanford"
        string_val: "Stanford"
        string_val: "Stanford"
        string_val: "Tennessee"
        string_val: "Tennessee"
        string_val: "Tennessee"
        string_val: "Tennessee"
        string_val: "Tulsa"
        string_val: "Tulsa"
        string_val: "Tulsa"
        string_val: "Texas A&M"
        string_val: "Texas A&M"
        string_val: "Texas A&M"
        string_val: "Little Rock"
        string_val: "UCLA"
        string_val: "UCLA"
        string_val: "UCLA"
        string_val: "UCLA"
        string_val: "UCLA"
        string_val: "UCLA"
        string_val: "UCLA"
        string_val: "UCLA"
        string_val: "UCLA"
        string_val: "UCLA"
        string_val: "UCLA"
        string_val: "UCLA"
        string_val: "UCLA"
        string_val: "UCLA"
        string_val: "UCLA"
        string_val: "UCLA"
        string_val: "UCLA"
        string_val: "UCLA"
        string_val: "UNC Asheville"
        string_val: "UNLV"
        string_val: "UNLV"
        string_val: "UNLV"
        string_val: "UNLV"
        string_val: "UNLV"
        string_val: "Utah"
        string_val: "Utah"
        string_val: "Utah"
        string_val: "Utah"
        string_val: "Utah"
        string_val: "Utah"
        string_val: "Utah"
        string_val: "Utah"
        string_val: "Utah"
        string_val: "Utah"
        string_val: "Utah"
        string_val: "UTEP"
        string_val: "UTEP"
        string_val: "Villanova"
        string_val: "Villanova"
        string_val: "Villanova"
        string_val: "Villanova"
        string_val: "Wake Forest"
        string_val: "Wake Forest"
        string_val: "Wake Forest"
        string_val: "Wake Forest"
        string_val: "Wake Forest"
        string_val: "Wake Forest"
        string_val: "Boston College"
        string_val: "Boston College"
        string_val: "Boston College"
        string_val: "Boston College"
        string_val: "Boston College"
        string_val: "Cal Poly"
        string_val: "Georgia Tech"
        string_val: "Georgia Tech"
        string_val: "Georgia Tech"
        string_val: "Georgia Tech"
        string_val: "Georgia Tech"
        string_val: "Georgia Tech"
        string_val: "Georgia Tech"
        string_val: "Georgia Tech"
        string_val: "Georgia Tech"
        string_val: "Georgia Tech"
        string_val: "Georgia Tech"
        string_val: "Georgia Tech"
        string_val: "Kansas"
        string_val: "Kansas"
        string_val: "Kansas"
        string_val: "Kansas"
        string_val: "Kansas"
        string_val: "Kansas"
        string_val: "Kansas"
        string_val: "Kansas"
        string_val: "Kansas"
        string_val: "Kansas"
        string_val: "Louisiana Tech"
        string_val: "Louisiana Tech"
        string_val: "Maryland"
        string_val: "Maryland"
        string_val: "Maryland"
        string_val: "Maryland"
        string_val: "Maryland"
        string_val: "Maryland"
        string_val: "Maryland"
        string_val: "Maryland"
        string_val: "Maryland"
        string_val: "Notre Dame"
        string_val: "Notre Dame"
        string_val: "Notre Dame"
        string_val: "Notre Dame"
        string_val: "Notre Dame"
        string_val: "Kentucky"
        string_val: "Kentucky"
        string_val: "Kentucky"
        string_val: "Kentucky"
        string_val: "Kentucky"
        string_val: "Kentucky"
        string_val: "Kentucky"
        string_val: "Kentucky"
        string_val: "Kentucky"
        string_val: "Kentucky"
        string_val: "Kentucky"
        string_val: "Kentucky"
        string_val: "Kentucky"
        string_val: "Kentucky"
        string_val: "Kentucky"
        string_val: "Kentucky"
        string_val: "Kentucky"
        string_val: "Kentucky"
        string_val: "Kentucky"
        string_val: "Kentucky"
        string_val: "Kentucky"
        string_val: "Kentucky"
        string_val: "Kentucky"
        string_val: "Kentucky"
        string_val: "Kentucky"
        string_val: "Kentucky"
        string_val: "Kentucky"
        string_val: "Kentucky"
        string_val: "Kentucky"
        string_val: "Kentucky"
        string_val: "Kentucky"
        string_val: "Alabama"
        string_val: "Alabama"
        string_val: "Alabama"
        string_val: "Arkansas"
        string_val: "Arkansas"
        string_val: "Arkansas"
        string_val: "Arkansas"
        string_val: "Arkansas"
        string_val: "Arkansas"
        string_val: "Arkansas"
        string_val: "Arkansas"
        string_val: "Arkansas"
        string_val: "Arkansas"
        string_val: "Arkansas"
        string_val: "Arkansas"
        string_val: "Arkansas"
        string_val: "Auburn"
        string_val: "Auburn"
        string_val: "Auburn"
        string_val: "Auburn"
        string_val: "Auburn"
        string_val: "Baylor"
        string_val: "Baylor"
        string_val: "Baylor"
        string_val: "Butler"
        string_val: "Butler"
        string_val: "Butler"
        string_val: "Butler"
        string_val: "Butler"
        string_val: "Butler"
        string_val: "Butler"
        string_val: "Butler"
        string_val: "Butler"
        string_val: "BYU"
        string_val: "BYU"
        string_val: "BYU"
        string_val: "California"
        string_val: "Cincinnati"
        string_val: "Cincinnati"
        string_val: "Cincinnati"
        string_val: "Cincinnati"
        string_val: "Cincinnati"
        string_val: "Cincinnati"
        string_val: "Cincinnati"
        string_val: "Cincinnati"
        string_val: "Cincinnati"
        string_val: "Cincinnati"
        string_val: "Colorado St."
        string_val: "Colorado St."
        string_val: "Dayton"
        string_val: "DePaul"
        string_val: "DePaul"
        string_val: "Detroit Mercy"
        string_val: "Detroit Mercy"
        string_val: "Eastern Mich."
        string_val: "Florida"
        string_val: "Florida"
        string_val: "Florida"
        string_val: "Florida"
        string_val: "Florida"
        string_val: "Florida"
        string_val: "Florida"
        string_val: "Florida"
        string_val: "Florida"
        string_val: "Florida"
        string_val: "Florida"
        string_val: "Florida"
        string_val: "Florida"
        string_val: "Florida"
        string_val: "Florida"
        string_val: "Florida St."
        string_val: "Florida St."
        string_val: "Florida St."
        string_val: "Florida St."
        string_val: "Illinois"
        string_val: "Illinois"
        string_val: "Illinois"
        string_val: "Illinois"
        string_val: "Illinois"
        string_val: "Illinois"
        string_val: "Illinois"
        string_val: "Illinois"
        string_val: "Illinois"
        string_val: "Indiana"
        string_val: "Indiana"
        string_val: "Indiana"
        string_val: "Indiana"
        string_val: "Indiana"
        string_val: "Indiana"
        string_val: "Indiana"
        string_val: "Indiana"
        string_val: "Indiana"
        string_val: "Indiana"
        string_val: "Indiana"
        string_val: "Indiana"
        string_val: "Indiana"
        string_val: "Indiana"
        string_val: "Indiana"
        string_val: "Iowa St."
        string_val: "Iowa St."
        string_val: "Iowa St."
        string_val: "Iowa St."
        string_val: "Iowa St."
        string_val: "Iowa St."
        string_val: "Kansas St."
        string_val: "Lehigh"
        string_val: "Louisville"
        string_val: "Louisville"
        string_val: "Louisville"
        string_val: "Louisville"
        string_val: "Louisville"
        string_val: "Louisville"
        string_val: "Louisville"
        string_val: "Louisville"
        string_val: "Louisville"
        string_val: "Louisville"
        string_val: "Louisville"
        string_val: "Louisville"
        string_val: "Louisville"
        string_val: "Louisville"
        string_val: "Louisville"
        string_val: "LSU"
        string_val: "LSU"
        string_val: "LSU"
        string_val: "LSU"
        string_val: "LSU"
        string_val: "LSU"
        string_val: "LSU"
        string_val: "LSU"
        string_val: "Manhattan"
        string_val: "Memphis"
        string_val: "Memphis"
        string_val: "Memphis"
        string_val: "Memphis"
        string_val: "Memphis"
        string_val: "Memphis"
        string_val: "Memphis"
        string_val: "Memphis"
        string_val: "Memphis"
        string_val: "Memphis"
        string_val: "Memphis"
        string_val: "Memphis"
        string_val: "Memphis"
        string_val: "Memphis"
        string_val: "Memphis"
        string_val: "Memphis"
        string_val: "Memphis"
        string_val: "Mercer"
        string_val: "Miami (FL)"
        string_val: "Michigan St."
        string_val: "Michigan St."
        string_val: "Michigan St."
        string_val: "Michigan St."
        string_val: "Michigan St."
        string_val: "Michigan St."
        string_val: "Michigan St."
        string_val: "Michigan St."
        string_val: "Michigan St."
        string_val: "Michigan St."
        string_val: "Michigan St."
        string_val: "Michigan St."
        string_val: "Michigan St."
        string_val: "Michigan St."
        string_val: "Michigan St."
        string_val: "Michigan St."
        string_val: "Michigan St."
        string_val: "Michigan St."
        string_val: "Michigan St."
        string_val: "Michigan St."
        string_val: "Michigan St."
        string_val: "Michigan St."
        string_val: "Michigan St."
        string_val: "Michigan St."
        string_val: "Michigan St."
        string_val: "Michigan St."
        string_val: "Oregon"
        string_val: "Oregon"
        string_val: "Oregon"
        string_val: "Oregon"
        string_val: "Oregon"
        string_val: "Ohio St."
        string_val: "Ohio St."
        string_val: "Ohio St."
        string_val: "Ohio St."
        string_val: "Ohio St."
        string_val: "Ohio St."
        string_val: "Ohio St."
        string_val: "Ohio St."
        string_val: "Ohio St."
        string_val: "Ohio St."
        string_val: "Purdue"
        string_val: "Purdue"
        string_val: "Purdue"
        string_val: "Purdue"
        string_val: "Siena"
        string_val: "St. John\'s (NY)"
        string_val: "St. John\'s (NY)"
        string_val: "St. John\'s (NY)"
        string_val: "St. John\'s (NY)"
        string_val: "St. John\'s (NY)"
        string_val: "St. John\'s (NY)"
        string_val: "St. John\'s (NY)"
        string_val: "Saint Louis"
        string_val: "Saint Louis"
        string_val: "Saint Mary\'s (CA)"
        string_val: "Syracuse"
        string_val: "Syracuse"
        string_val: "Syracuse"
        string_val: "Syracuse"
        string_val: "Syracuse"
        string_val: "Syracuse"
        string_val: "Syracuse"
        string_val: "Syracuse"
        string_val: "Syracuse"
        string_val: "Temple"
        string_val: "Temple"
        string_val: "Temple"
        string_val: "Texas"
        string_val: "Texas"
        string_val: "Texas"
        string_val: "Texas"
        string_val: "Texas"
        string_val: "Texas"
        string_val: "Texas"
        string_val: "Texas Tech"
        string_val: "UAB"
        string_val: "UNI"
        string_val: "UNI"
        string_val: "UNI"
        string_val: "Rhode Island"
        string_val: "Rhode Island"
        string_val: "Rhode Island"
        string_val: "Southern California"
        string_val: "Southern California"
        string_val: "Virginia"
        string_val: "Virginia"
        string_val: "Virginia"
        string_val: "Virginia"
        string_val: "Vermont"
        string_val: "VCU"
        string_val: "Winthrop"
        string_val: "Wisconsin"
        string_val: "Wisconsin"
        string_val: "Wisconsin"
        string_val: "Wisconsin"
        string_val: "Wisconsin"
        string_val: "Wisconsin"
        string_val: "Western Ky."
        string_val: "Western Ky."
        string_val: "Western Ky."
        string_val: "Western Ky."
        string_val: "Western Ky."
        string_val: "Western Mich."
        string_val: "West Virginia"
        string_val: "West Virginia"
        string_val: "Xavier"
        string_val: "Xavier"
        string_val: "Xavier"
        string_val: "Xavier"
        string_val: "Xavier"
        string_val: "Arizona"
        string_val: "Arizona"
        string_val: "Arizona"
        string_val: "Arizona"
        string_val: "Arizona"
        string_val: "Arizona"
        string_val: "Arizona"
        string_val: "Arizona"
        string_val: "Ball St."
        string_val: "Charlotte"
        string_val: "Clemson"
        string_val: "Clemson"
        string_val: "Cleveland St."
        string_val: "Colorado"
        string_val: "UConn"
        string_val: "UConn"
        string_val: "UConn"
        string_val: "UConn"
        string_val: "Creighton"
        string_val: "Creighton"
        string_val: "Duke"
        string_val: "Duke"
        string_val: "Duke"
        string_val: "Duke"
        string_val: "Duke"
        string_val: "Duke"
        string_val: "Duke"
        string_val: "Duke"
        string_val: "Duke"
        string_val: "Duke"
        string_val: "Duke"
        string_val: "Duke"
        string_val: "Duke"
        string_val: "Duke"
        string_val: "Duke"
        string_val: "Duke"
        string_val: "Gonzaga"
        string_val: "Georgetown"
        string_val: "Georgetown"
        string_val: "Georgetown"
        string_val: "Seton Hall"
        string_val: "Hampton"
        string_val: "Illinois St."
        string_val: "Iowa"
        string_val: "Iowa"
        string_val: "Saint Joseph\'s"
        string_val: "Saint Joseph\'s"
        string_val: "Saint Joseph\'s"
        string_val: "Kent St."
        string_val: "Kent St."
        string_val: "Kent St."
        string_val: "Miami (OH)"
        string_val: "Marquette"
        string_val: "Marquette"
        string_val: "Marquette"
        string_val: "Marquette"
        string_val: "Marquette"
        string_val: "Massachusetts"
        string_val: "Michigan"
        string_val: "Michigan"
        string_val: "Michigan"
        string_val: "Michigan"
        string_val: "Michigan"
        string_val: "Michigan"
        string_val: "Milwaukee"
        string_val: "Minnesota"
        string_val: "Minnesota"
        string_val: "Minnesota"
        string_val: "Minnesota"
        string_val: "Minnesota"
        string_val: "Minnesota"
        string_val: "Minnesota"
        string_val: "Ole Miss"
        string_val: "Ole Miss"
        string_val: "Missouri"
        string_val: "Missouri"
        string_val: "Missouri"
        string_val: "Monmouth"
        string_val: "Montana"
        string_val: "Morehead St."
        string_val: "Mississippi St."
        string_val: "Mississippi St."
        string_val: "Mississippi St."
        string_val: "Mississippi St."
        string_val: "Mississippi St."
        string_val: "Mississippi St."
        string_val: "N.C. A&T"
        string_val: "NC State"
        string_val: "Northwestern St."
        string_val: "Ohio"
        string_val: "Oklahoma"
        string_val: "Oklahoma"
        string_val: "Oklahoma"
        string_val: "Oklahoma"
        string_val: "Oklahoma"
        string_val: "Oklahoma"
        string_val: "Oklahoma"
        string_val: "Oklahoma"
        string_val: "Oklahoma"
        string_val: "Oklahoma St."
        string_val: "Oklahoma St."
        string_val: "Oklahoma St."
        string_val: "Oklahoma St."
        string_val: "Oklahoma St."
        string_val: "Oklahoma St."
        string_val: "Pittsburgh"
        string_val: "Pittsburgh"
        string_val: "Pittsburgh"
        string_val: "Pittsburgh"
        string_val: "Pittsburgh"
        string_val: "Pittsburgh"
        string_val: "Pittsburgh"
        string_val: "Pittsburgh"
        string_val: "Princeton"
        string_val: "Stanford"
        string_val: "Stanford"
        string_val: "Stanford"
        string_val: "Stanford"
        string_val: "Stanford"
        string_val: "Stanford"
        string_val: "Tennessee"
        string_val: "Tennessee"
        string_val: "Tennessee"
        string_val: "Tennessee"
        string_val: "Tennessee"
        string_val: "Tennessee"
        string_val: "Tulsa"
        string_val: "Tulsa"
        string_val: "Tulsa"
        string_val: "Tulsa"
        string_val: "Tulane"
        string_val: "UCLA"
        string_val: "UCLA"
        string_val: "UCLA"
        string_val: "UCLA"
        string_val: "UCLA"
        string_val: "UCLA"
        string_val: "UC Santa Barbara"
        string_val: "UNC Asheville"
        string_val: "UNCW"
        string_val: "UNLV"
        string_val: "UNLV"
        string_val: "Utah"
        string_val: "Utah"
        string_val: "Utah"
        string_val: "Utah"
        string_val: "Utah"
        string_val: "UTEP"
        string_val: "UTEP"
        string_val: "Valparaiso"
        string_val: "Valparaiso"
        string_val: "Villanova"
        string_val: "Villanova"
        string_val: "Villanova"
        string_val: "Villanova"
        string_val: "Villanova"
        string_val: "Villanova"
        string_val: "Villanova"
        string_val: "Wake Forest"
        string_val: "Wake Forest"
        string_val: "Wake Forest"
        string_val: "Wake Forest"
        string_val: "Wichita St."
        string_val: "Wichita St."
        string_val: "Wichita St."
        string_val: "Boston College"
        string_val: "Boston College"
        string_val: "Green Bay"
        string_val: "Georgia Tech"
        string_val: "Georgia Tech"
        string_val: "Georgia Tech"
        string_val: "Georgia Tech"
        string_val: "Georgia Tech"
        string_val: "George Washington"
        string_val: "George Washington"
        string_val: "Kansas"
        string_val: "Kansas"
        string_val: "Kansas"
        string_val: "Kansas"
        string_val: "Kansas"
        string_val: "Kansas"
        string_val: "Kansas"
        string_val: "Kansas"
        string_val: "Kansas"
        string_val: "Kansas"
        string_val: "Kansas"
        string_val: "Kansas"
        string_val: "Kansas"
        string_val: "Kansas"
        string_val: "Kansas"
        string_val: "Kansas"
        string_val: "Kansas"
        string_val: "Kansas"
        string_val: "Louisiana Tech"
        string_val: "Maryland"
        string_val: "Maryland"
        string_val: "Maryland"
        string_val: "Maryland"
        string_val: "Notre Dame"
        string_val: "Notre Dame"
        string_val: "Notre Dame"
        string_val: "Notre Dame"
        string_val: "Kentucky"
        string_val: "Kentucky"
        string_val: "Kentucky"
        string_val: "Kentucky"
        string_val: "Kentucky"
        string_val: "Kentucky"
        string_val: "Kentucky"
        string_val: "Kentucky"
        string_val: "Kentucky"
        string_val: "Kentucky"
        string_val: "Kentucky"
        string_val: "Kentucky"
        string_val: "Kentucky"
        string_val: "Kentucky"
        string_val: "Kentucky"
        string_val: "Kentucky"
        string_val: "Kentucky"
        string_val: "Virginia Tech"
        string_val: "Alabama"
        string_val: "Alabama"
        string_val: "Alabama"
        string_val: "Arkansas"
        string_val: "Arkansas"
        string_val: "Arizona St."
        string_val: "Arizona St."
        string_val: "Arizona St."
        string_val: "Auburn"
        string_val: "Auburn"
        string_val: "Auburn"
        string_val: "Auburn"
        string_val: "Auburn"
        string_val: "Baylor"
        string_val: "Baylor"
        string_val: "Butler"
        string_val: "Butler"
        string_val: "Butler"
        string_val: "Butler"
        string_val: "Butler"
        string_val: "BYU"
        string_val: "BYU"
        string_val: "BYU"
        string_val: "Cincinnati"
        string_val: "Central Mich."
        string_val: "Florida"
        string_val: "Florida"
        string_val: "Florida"
        string_val: "Florida"
        string_val: "Florida"
        string_val: "Florida"
        string_val: "Florida"
        string_val: "Florida"
        string_val: "Florida St."
        string_val: "Florida St."
        string_val: "George Mason"
        string_val: "George Mason"
        string_val: "George Mason"
        string_val: "George Mason"
        string_val: "Illinois"
        string_val: "Illinois"
        string_val: "Illinois"
        string_val: "Illinois"
        string_val: "Indiana"
        string_val: "Iowa St."
        string_val: "Iowa St."
        string_val: "Iowa St."
        string_val: "Kansas St."
        string_val: "Kansas St."
        string_val: "Kansas St."
        string_val: "Kansas St."
        string_val: "La Salle"
        string_val: "La Salle"
        string_val: "La Salle"
        string_val: "Loyola Marymount"
        string_val: "Loyola Marymount"
        string_val: "Loyola Marymount"
        string_val: "Loyola Marymount"
        string_val: "Louisville"
        string_val: "Louisville"
        string_val: "Louisville"
        string_val: "Louisville"
        string_val: "Louisville"
        string_val: "Louisville"
        string_val: "Louisville"
        string_val: "Louisville"
        string_val: "Louisville"
        string_val: "Louisville"
        string_val: "Louisville"
        string_val: "Louisville"
        string_val: "Louisville"
        string_val: "LSU"
        string_val: "LSU"
        string_val: "Manhattan"
        string_val: "Memphis"
        string_val: "Memphis"
        string_val: "Michigan St."
        string_val: "Michigan St."
        string_val: "Michigan St."
        string_val: "Michigan St."
        string_val: "Michigan St."
        string_val: "Michigan St."
        string_val: "Michigan St."
        string_val: "Middle Tenn."
        string_val: "Nevada"
        string_val: "Nevada"
        string_val: "Oakland"
        string_val: "Oregon"
        string_val: "Oregon"
        string_val: "Ohio St."
        string_val: "Ohio St."
        string_val: "Ohio St."
        string_val: "Ohio St."
        string_val: "Ohio St."
        string_val: "Ohio St."
        string_val: "Ohio St."
        string_val: "Ohio St."
        string_val: "Ohio St."
        string_val: "Pacific"
        string_val: "Penn St."
        string_val: "Penn St."
        string_val: "Purdue"
        string_val: "Purdue"
        string_val: "Purdue"
        string_val: "Purdue"
        string_val: "Purdue"
        string_val: "Purdue"
        string_val: "Purdue"
        string_val: "Purdue"
        string_val: "Santa Clara"
        string_val: "Santa Clara"
        string_val: "Southern Ill."
        string_val: "Southern Ill."
        string_val: "St. John\'s (NY)"
        string_val: "St. John\'s (NY)"
        string_val: "Saint Louis"
        string_val: "Saint Louis"
        string_val: "Southern U."
        string_val: "Syracuse"
        string_val: "Syracuse"
        string_val: "Syracuse"
        string_val: "Syracuse"
        string_val: "Syracuse"
        string_val: "Syracuse"
        string_val: "Syracuse"
        string_val: "Syracuse"
        string_val: "Syracuse"
        string_val: "Syracuse"
        string_val: "Syracuse"
        string_val: "Temple"
        string_val: "Temple"
        string_val: "Temple"
        string_val: "Temple"
        string_val: "Temple"
        string_val: "Temple"
        string_val: "Texas"
        string_val: "UAB"
        string_val: "UAB"
        string_val: "UAB"
        string_val: "Georgia"
        string_val: "Georgia"
        string_val: "North Carolina"
        string_val: "North Carolina"
        string_val: "North Carolina"
        string_val: "North Carolina"
        string_val: "North Carolina"
        string_val: "North Carolina"
        string_val: "North Carolina"
        string_val: "North Carolina"
        string_val: "North Carolina"
        string_val: "North Carolina"
        string_val: "North Carolina"
        string_val: "North Carolina"
        string_val: "North Carolina"
        string_val: "North Carolina"
        string_val: "North Carolina"
        string_val: "North Carolina"
        string_val: "North Carolina"
        string_val: "North Carolina"
        string_val: "North Carolina"
        string_val: "North Carolina"
        string_val: "North Carolina"
        string_val: "North Carolina"
        string_val: "North Carolina"
        string_val: "North Carolina"
        string_val: "North Carolina"
        string_val: "North Carolina"
        string_val: "New Mexico"
        string_val: "New Mexico"
        string_val: "New Mexico"
        string_val: "South Ala."
        string_val: "San Diego"
        string_val: "Virginia"
        string_val: "Virginia"
        string_val: "Virginia"
        string_val: "Virginia"
        string_val: "Vanderbilt"
        string_val: "Vanderbilt"
        string_val: "VCU"
        string_val: "VCU"
        string_val: "VCU"
        string_val: "VCU"
        string_val: "VCU"
        string_val: "VCU"
        string_val: "Weber St."
        string_val: "Weber St."
        string_val: "Wisconsin"
        string_val: "Wisconsin"
        string_val: "Wisconsin"
        string_val: "Wisconsin"
        string_val: "Wisconsin"
        string_val: "Wisconsin"
        string_val: "Wisconsin"
        string_val: "Wisconsin"
        string_val: "Wisconsin"
        string_val: "Wisconsin"
        string_val: "Wisconsin"
        string_val: "Wisconsin"
        string_val: "Wisconsin"
        string_val: "Wisconsin"
        string_val: "Wisconsin"
        string_val: "Wisconsin"
        string_val: "Wisconsin"
        string_val: "Western Ky."
        string_val: "Western Ky."
        string_val: "West Virginia"
        string_val: "West Virginia"
        string_val: "Wyoming"
        string_val: "Wyoming"
        string_val: "Wyoming"
        string_val: "Xavier"
        string_val: "Xavier"
        string_val: "Xavier"
        string_val: "Xavier"
        string_val: "Xavier"
        string_val: "Xavier"
        string_val: "Xavier"
        string_val: "Xavier"
        string_val: "Arizona"
        string_val: "Arizona"
        string_val: "Arizona"
        string_val: "Arizona"
        string_val: "Arizona"
        string_val: "Arizona"
        string_val: "Arizona"
        string_val: "Arizona"
        string_val: "Arizona"
        string_val: "Arizona"
        string_val: "Arizona"
        string_val: "Arizona"
        string_val: "Arizona"
        string_val: "Arizona"
        string_val: "Arizona"
        string_val: "Arizona"
        string_val: "Arizona"
        string_val: "Arizona"
        string_val: "Arizona"
        string_val: "Arizona"
        string_val: "Arizona"
        string_val: "Arizona"
        string_val: "Arizona"
        string_val: "Arizona"
        string_val: "Arizona"
        string_val: "Arizona"
        string_val: "Arizona"
        string_val: "Ball St."
        string_val: "Ball St."
        string_val: "Bradley"
        string_val: "Bucknell"
        string_val: "Charlotte"
        string_val: "UConn"
        string_val: "UConn"
        string_val: "UConn"
        string_val: "UConn"
        string_val: "UConn"
        string_val: "UConn"
        string_val: "UConn"
        string_val: "UConn"
        string_val: "UConn"
        string_val: "UConn"
        string_val: "UConn"
        string_val: "UConn"
        string_val: "UConn"
        string_val: "UConn"
        string_val: "UConn"
        string_val: "Creighton"
        string_val: "Creighton"
        string_val: "Drexel"
        string_val: "Duke"
        string_val: "Duke"
        string_val: "Duke"
        string_val: "Duke"
        string_val: "Duke"
        string_val: "Duke"
        string_val: "ETSU"
        string_val: "Florida A&M"
        string_val: "Fresno St."
        string_val: "Georgia St."
        string_val: "Gonzaga"
        string_val: "Gonzaga"
        string_val: "Gonzaga"
        string_val: "Gonzaga"
        string_val: "Gonzaga"
        string_val: "Gonzaga"
        string_val: "Gonzaga"
        string_val: "Gonzaga"
        string_val: "Gonzaga"
        string_val: "Gonzaga"
        string_val: "Gonzaga"
        string_val: "Gonzaga"
        string_val: "Georgetown"
        string_val: "Georgetown"
        string_val: "Georgetown"
        string_val: "Seton Hall"
        string_val: "Seton Hall"
        string_val: "Seton Hall"
        string_val: "Seton Hall"
        string_val: "Harvard"
        string_val: "Indiana St."
        string_val: "Iowa"
        string_val: "Iowa"
        string_val: "Iowa"
        string_val: "Iowa"
        string_val: "Iowa"
        string_val: "Iowa"
        string_val: "Iowa"
        string_val: "Iowa"
        string_val: "Iowa"
        string_val: "Saint Joseph\'s"
        string_val: "Saint Joseph\'s"
        string_val: "Marquette"
        string_val: "Marquette"
        string_val: "Marquette"
        string_val: "Michigan"
        string_val: "Michigan"
        string_val: "Michigan"
        string_val: "Michigan"
        string_val: "Michigan"
        string_val: "Michigan"
        string_val: "Michigan"
        string_val: "Michigan"
        string_val: "Michigan"
        string_val: "Michigan"
        string_val: "Michigan"
        string_val: "Michigan"
        string_val: "Michigan"
        string_val: "Michigan"
        string_val: "Michigan"
        string_val: "Michigan"
        string_val: "Michigan"
        string_val: "Michigan"
        string_val: "Michigan"
        string_val: "Michigan"
        string_val: "Michigan"
        string_val: "Minnesota"
        string_val: "Ole Miss"
        string_val: "Ole Miss"
        string_val: "Missouri"
        string_val: "Missouri"
        string_val: "Missouri"
        string_val: "Missouri"
        string_val: "Missouri"
        string_val: "Missouri"
        string_val: "Missouri"
        string_val: "Missouri"
        string_val: "Missouri"
        string_val: "Morehead St."
        string_val: "Murray St."
        string_val: "Murray St."
        string_val: "Navy"
        string_val: "NC State"
        string_val: "NC State"
        string_val: "North Dakota St."
        string_val: "Niagara"
        string_val: "Norfolk St."
        string_val: "Oklahoma"
        string_val: "Oklahoma"
        string_val: "Oklahoma"
        string_val: "Oklahoma"
        string_val: "Oklahoma"
        string_val: "Oklahoma"
        string_val: "Oklahoma"
        string_val: "Oklahoma"
        string_val: "Oklahoma"
        string_val: "Oklahoma St."
        string_val: "Oklahoma St."
        string_val: "Oklahoma St."
        string_val: "Pittsburgh"
        string_val: "Pittsburgh"
        string_val: "Pittsburgh"
        string_val: "Pittsburgh"
        string_val: "Richmond"
        string_val: "Richmond"
        string_val: "San Diego St."
        string_val: "San Diego St."
        string_val: "Stanford"
        string_val: "Stanford"
        string_val: "Stanford"
        string_val: "Tennessee"
        string_val: "Tulane"
        string_val: "Tulane"
        string_val: "Texas A&M"
        string_val: "Texas A&M"
        string_val: "UCLA"
        string_val: "UCLA"
        string_val: "UCLA"
        string_val: "UCLA"
        string_val: "UCLA"
        string_val: "UCLA"
        string_val: "UCLA"
        string_val: "UCLA"
        string_val: "UCLA"
        string_val: "UCLA"
        string_val: "UCLA"
        string_val: "UCLA"
        string_val: "UCLA"
        string_val: "UCLA"
        string_val: "UCLA"
        string_val: "UNLV"
        string_val: "UNLV"
        string_val: "UNLV"
        string_val: "UNLV"
        string_val: "UNLV"
        string_val: "UNLV"
        string_val: "UNLV"
        string_val: "UNLV"
        string_val: "UNLV"
        string_val: "UNLV"
        string_val: "UNLV"
        string_val: "UNLV"
        string_val: "UNLV"
        string_val: "UNLV"
        string_val: "UNLV"
        string_val: "UNLV"
        string_val: "UNLV"
        string_val: "Utah"
        string_val: "Utah"
        string_val: "Utah"
        string_val: "Utah"
        string_val: "Utah"
        string_val: "UTEP"
        string_val: "Villanova"
        string_val: "Villanova"
        string_val: "Villanova"
        string_val: "Villanova"
        string_val: "Villanova"
        string_val: "Villanova"
        string_val: "Villanova"
        string_val: "Villanova"
        string_val: "Wake Forest"
        string_val: "Washington"
        string_val: "Washington"
        string_val: "Washington"
        string_val: "Wichita St."
        string_val: "Wichita St."
        string_val: "Wichita St."
        string_val: "Wichita St."
        string_val: "Wichita St."
        string_val: "Wichita St."
        string_val: "Indiana"
        string_val: "Texas Tech"
        string_val: "Southern Utah"
        string_val: "Washington St."
        string_val: "North Carolina"
        string_val: "Mercer"
        string_val: "Iowa St."
        string_val: "George Washington"
        string_val: "Syracuse"
        string_val: "Illinois"
        string_val: "UAB"
        string_val: "UNCW"
        string_val: "DePaul"
        string_val: "Robert Morris"
        string_val: "UConn"
        string_val: "Kentucky"
        string_val: "Indiana"
        string_val: "Wisconsin"
        string_val: "Siena"
        string_val: "Kansas"
        string_val: "George Mason"
        string_val: "Vanderbilt"
        string_val: "TCU"
        string_val: "Middle Tenn."
        string_val: "Tulsa"
        string_val: "West Virginia"
        string_val: "Valparaiso"
        string_val: "Iowa"
        string_val: "Iowa St."
        string_val: "Holy Cross"
        string_val: "Cornell"
        string_val: "Wake Forest"
        string_val: "North Carolina"
        string_val: "Massachusetts"
        string_val: "Princeton"
        string_val: "Ohio St."
        string_val: "ETSU"
        string_val: "Old Dominion"
        string_val: "Penn"
        string_val: "Marquette"
        string_val: "Indiana"
        string_val: "Holy Cross"
        string_val: "St. John\'s (NY)"
        string_val: "Penn St."
        string_val: "Wake Forest"
        string_val: "Saint Joseph\'s"
        string_val: "South Ala."
        string_val: "Mississippi St."
        string_val: "Bucknell"
        string_val: "Louisville"
        string_val: "Indiana"
        string_val: "Princeton"
        string_val: "Villanova"
        string_val: "NC State"
        string_val: "UNLV"
        string_val: "Virginia"
        string_val: "ETSU"
        string_val: "Florida St."
        string_val: "Texas"
        string_val: "George Mason"
        string_val: "New Mexico St."
        string_val: "Coppin St."
        string_val: "Wisconsin"
        string_val: "Temple"
        string_val: "Providence"
        string_val: "Boise St."
        string_val: "Oklahoma"
        string_val: "Virginia"
        string_val: "Penn St."
        string_val: "Mississippi St."
        string_val: "Oklahoma St."
        string_val: "Butler"
        string_val: "NC State"
        string_val: "Penn"
        string_val: "Illinois"
        string_val: "UConn"
        string_val: "Duke"
        string_val: "James Madison"
        string_val: "North Carolina"
        string_val: "Boston College"
        string_val: "Purdue"
        string_val: "St. Bonaventure"
        string_val: "Villanova"
        string_val: "Northeastern"
        string_val: "Penn"
        string_val: "Murray St."
        string_val: "Georgia"
        string_val: "Cincinnati"
        string_val: "Colorado"
        string_val: "James Madison"
        string_val: "Temple"
        string_val: "Temple"
        string_val: "Ohio"
        string_val: "Oklahoma"
        string_val: "Charlotte"
        string_val: "North Carolina"
        string_val: "N.C. Central"
        string_val: "LIU Brooklyn"
        string_val: "Southern Miss."
        string_val: "Southern Miss."
        string_val: "Louisiana"
        string_val: "Tennessee"
        string_val: "Oklahoma"
        string_val: "Georgia Tech"
        string_val: "Washington"
        string_val: "NC State"
        string_val: "Austin Peay"
        string_val: "West Virginia"
        string_val: "New Mexico"
        string_val: "UC Irvine"
        string_val: "Boise St."
        string_val: "UNI"
        string_val: "Massachusetts"
        string_val: "Texas"
        string_val: "Texas"
        string_val: "Duke"
        string_val: "Iona"
        string_val: "Texas A&M"
        string_val: "George Washington"
        string_val: "Lafayette"
        string_val: "Illinois"
        string_val: "Pacific"
        string_val: "Coppin St."
        string_val: "Virginia"
        string_val: "Harvard"
        string_val: "Virginia"
        string_val: "Oklahoma"
        string_val: "Louisville"
        string_val: "Marquette"
        string_val: "Princeton"
        string_val: "Eastern Mich."
        string_val: "Delaware"
        string_val: "Georgia"
        string_val: "West Virginia"
        string_val: "Villanova"
        string_val: "UTSA"
        string_val: "George Mason"
        string_val: "Gonzaga"
        string_val: "Loyola Maryland"
        string_val: "Cincinnati"
        string_val: "Syracuse"
        string_val: "Pittsburgh"
        string_val: "UCLA"
        string_val: "Texas"
        string_val: "Miami (FL)"
        string_val: "Northeastern"
        string_val: "Stanford"
        string_val: "Alcorn"
        string_val: "Georgia"
        string_val: "Texas Tech"
        string_val: "Texas Tech"
        string_val: "Temple"
        string_val: "Minnesota"
        string_val: "Notre Dame"
        string_val: "Old Dominion"
        string_val: "Brown"
        string_val: "Indiana St."
        string_val: "Texas"
        string_val: "N.C. A&T"
        string_val: "DePaul"
        string_val: "Providence"
        string_val: "Montana"
        string_val: "Kansas"
        string_val: "Manhattan"
        string_val: "Oklahoma St."
        string_val: "Oklahoma"
        string_val: "UNC Asheville"
        string_val: "Marquette"
        string_val: "Kansas St."
        string_val: "Florida"
        string_val: "Ga. Southern"
        string_val: "Auburn"
        string_val: "Indiana"
        string_val: "Princeton"
        string_val: "North Carolina"
        string_val: "California"
        string_val: "Western Ky."
        string_val: "Wisconsin"
        string_val: "Marshall"
        string_val: "Drexel"
        string_val: "Virginia Tech"
        string_val: "Purdue"
        string_val: "Georgetown"
        string_val: "Purdue"
        string_val: "Cincinnati"
        string_val: "Richmond"
        string_val: "NC State"
        string_val: "Oklahoma St."
        string_val: "Lafayette"
        string_val: "Lehigh"
        string_val: "Richmond"
        string_val: "Kent St."
        string_val: "Wisconsin"
        string_val: "Minnesota"
        string_val: "New Mexico St."
        string_val: "Penn"
        string_val: "West Virginia"
        string_val: "Princeton"
        string_val: "NC State"
        string_val: "Coppin St."
        string_val: "North Carolina"
        string_val: "Gonzaga"
        string_val: "Northern Ill."
        string_val: "North Carolina"
        string_val: "UCLA"
        string_val: "Wichita St."
        string_val: "Murray St."
        string_val: "Charlotte"
        string_val: "California"
        string_val: "Penn"
        string_val: "Marquette"
        string_val: "Notre Dame"
        string_val: "Arkansas"
        string_val: "Eastern Mich."
        string_val: "Colorado"
        string_val: "Liberty"
        string_val: "Eastern Ky."
        string_val: "Navy"
        string_val: "Northeastern"
        string_val: "Michigan"
        string_val: "Michigan St."
        string_val: "Rhode Island"
        string_val: "Louisville"
        string_val: "Kansas"
        string_val: "LIU Brooklyn"
        string_val: "Villanova"
        string_val: "Providence"
        string_val: "Washington"
        string_val: "Fairfield"
        string_val: "Southern California"
        string_val: "UConn"
        string_val: "Mt. St. Mary\'s"
        string_val: "New Orleans"
        string_val: "East Carolina"
        string_val: "Arkansas"
        string_val: "Louisville"
        string_val: "Michigan"
        string_val: "Temple"
        string_val: "Cincinnati"
        string_val: "Washington St."
        string_val: "Michigan St."
        string_val: "Air Force"
        string_val: "Wyoming"
        string_val: "Montana"
        string_val: "Old Dominion"
        string_val: "Kansas St."
        string_val: "Purdue"
        string_val: "Syracuse"
        string_val: "Missouri"
        string_val: "Arkansas"
        string_val: "Oklahoma St."
        string_val: "Boston College"
        string_val: "Kentucky"
        string_val: "Texas"
        string_val: "Ohio St."
        string_val: "Belmont"
        string_val: "Coastal Caro."
        string_val: "Massachusetts"
        string_val: "Manhattan"
        string_val: "Memphis"
        string_val: "Harvard"
        string_val: "Washington St."
        string_val: "George Washington"
        string_val: "Wofford"
        string_val: "Montana"
        string_val: "Vanderbilt"
        string_val: "Florida St."
        string_val: "St. John\'s (NY)"
        string_val: "West Virginia"
        string_val: "Winthrop"
        string_val: "Oral Roberts"
        string_val: "Notre Dame"
        string_val: "Clemson"
        string_val: "Creighton"
        string_val: "Morgan St."
        string_val: "Missouri"
        string_val: "Washington"
        string_val: "Northwestern St."
        string_val: "Wake Forest"
        string_val: "Texas Tech"
        string_val: "Southern Ill."
        string_val: "Kentucky"
        string_val: "Tennessee"
        string_val: "Wisconsin"
        string_val: "Portland St."
        string_val: "Louisville"
        string_val: "Mississippi St."
        string_val: "Texas"
        string_val: "Ill.-Chicago"
        string_val: "UAB"
        string_val: "La Salle"
        string_val: "BYU"
        string_val: "Indiana"
        string_val: "Saint Joseph\'s"
        string_val: "Indiana"
        string_val: "Kentucky"
        string_val: "Florida"
        string_val: "Villanova"
        string_val: "George Washington"
        string_val: "Michigan St."
        string_val: "Hampton"
        string_val: "California"
        string_val: "Fairleigh Dickinson"
        string_val: "Clemson"
        string_val: "Washington"
        string_val: "Iowa St."
        string_val: "Southern Ill."
        string_val: "Indiana"
        string_val: "Saint Joseph\'s"
        string_val: "Rider"
        string_val: "NC State"
        string_val: "Boston U."
        string_val: "South Carolina"
        string_val: "South Carolina St."
        string_val: "Tulsa"
        string_val: "Florida A&M"
        string_val: "Georgetown"
        string_val: "Boston U."
        string_val: "Missouri"
        string_val: "Michigan St."
        string_val: "St. John\'s (NY)"
        string_val: "Maryland"
        string_val: "Missouri St."
        string_val: "Rhode Island"
        string_val: "Campbell"
        string_val: "UCLA"
        string_val: "Southern U."
        string_val: "Minnesota"
        string_val: "Arkansas"
        string_val: "Navy"
        string_val: "Southern California"
        string_val: "UCLA"
        string_val: "Lamar University"
        string_val: "George Washington"
        string_val: "Monmouth"
        string_val: "Illinois"
        string_val: "Mississippi Val."
        string_val: "West Virginia"
        string_val: "Xavier"
        string_val: "Richmond"
        string_val: "Old Dominion"
        string_val: "Seton Hall"
        string_val: "Michigan"
        string_val: "Kansas"
        string_val: "Arizona"
        string_val: "Temple"
        string_val: "SMU"
        string_val: "Kansas"
        string_val: "UConn"
        string_val: "Binghamton"
        string_val: "Kentucky"
        string_val: "DePaul"
        string_val: "Indiana"
        string_val: "Iowa"
        string_val: "Seton Hall"
        string_val: "Texas"
        string_val: "Temple"
        string_val: "Alabama St."
        string_val: "West Virginia"
        string_val: "Winthrop"
        string_val: "Texas Tech"
        string_val: "Princeton"
        string_val: "Lehigh"
        string_val: "NC State"
        string_val: "Georgia Tech"
        string_val: "LSU"
        string_val: "North Carolina"
        string_val: "Temple"
        string_val: "Boston College"
        string_val: "Mississippi Val."
        string_val: "St. John\'s (NY)"
        string_val: "Notre Dame"
        string_val: "Loyola Chicago"
        string_val: "Belmont"
        string_val: "New Mexico"
        string_val: "Vanderbilt"
        string_val: "Arizona"
        string_val: "Missouri"
        string_val: "Temple"
        string_val: "Oregon"
        string_val: "La Salle"
        string_val: "Cincinnati"
        string_val: "Creighton"
        string_val: "Texas"
        string_val: "Rutgers"
        string_val: "Richmond"
        string_val: "SMU"
        string_val: "Iona"
        string_val: "Xavier"
        string_val: "Miami (FL)"
        string_val: "Davidson"
        string_val: "Butler"
        string_val: "Syracuse"
        string_val: "Monmouth"
        string_val: "Georgetown"
        string_val: "Penn"
        string_val: "Saint Peter\'s"
        string_val: "Tulsa"
        string_val: "UCF"
        string_val: "Stanford"
        string_val: "Fordham"
        string_val: "Stanford"
        string_val: "Syracuse"
        string_val: "Arkansas"
        string_val: "Navy"
        string_val: "Siena"
        string_val: "Kansas St."
        string_val: "Clemson"
        string_val: "West Virginia"
        string_val: "Georgia"
        string_val: "Tennessee"
        string_val: "Wisconsin"
        string_val: "Monmouth"
        string_val: "Syracuse"
        string_val: "Cleveland St."
        string_val: "Tulsa"
        string_val: "Villanova"
        string_val: "California"
        string_val: "Southern Miss."
        string_val: "South Carolina"
        string_val: "Michigan St."
        string_val: "LSU"
        string_val: "Iowa"
        string_val: "Nebraska"
        string_val: "Iowa"
        string_val: "Albany (NY)"
        string_val: "Saint Joseph\'s"
        string_val: "Butler"
        string_val: "Dayton"
        string_val: "California"
        string_val: "Northeastern"
        string_val: "South Carolina St."
        string_val: "Drexel"
        string_val: "Pepperdine"
        string_val: "Wake Forest"
        string_val: "New Mexico"
        string_val: "Massachusetts"
        string_val: "Alabama"
        string_val: "Tennessee"
        string_val: "Seton Hall"
        string_val: "Hofstra"
        string_val: "Penn"
        string_val: "NC State"
        string_val: "Nebraska"
        string_val: "Indiana"
        string_val: "Xavier"
        string_val: "ETSU"
        string_val: "Oklahoma St."
        string_val: "UNLV"
        string_val: "South Carolina"
        string_val: "Georgia Tech"
        string_val: "Indiana"
        string_val: "Syracuse"
        string_val: "Charlotte"
        string_val: "Bradley"
        string_val: "American"
        string_val: "Butler"
        string_val: "Delaware"
        string_val: "Old Dominion"
        string_val: "Illinois"
        string_val: "Col. of Charleston"
        string_val: "Marquette"
        string_val: "Syracuse"
        string_val: "UAB"
        string_val: "Kansas"
        string_val: "Hofstra"
        string_val: "VCU"
        string_val: "Utah St."
        string_val: "Alabama St."
        string_val: "LIU Brooklyn"
        string_val: "Milwaukee"
        string_val: "UCLA"
        string_val: "Princeton"
        string_val: "Lafayette"
        string_val: "American"
        string_val: "Duke"
        string_val: "Pittsburgh"
        string_val: "N.C. A&T"
        string_val: "ETSU"
        string_val: "Chattanooga"
        string_val: "Saint Louis"
        string_val: "Texas"
        string_val: "Georgia"
        string_val: "Marquette"
        string_val: "Pacific"
        string_val: "Xavier"
        string_val: "Montana"
        string_val: "New Mexico"
        string_val: "Richmond"
        string_val: "Penn"
        string_val: "North Carolina"
        string_val: "Purdue"
        string_val: "New Orleans"
        string_val: "Indiana"
        string_val: "BYU"
        string_val: "Oregon"
        string_val: "Villanova"
        string_val: "Stanford"
        string_val: "Davidson"
        string_val: "Detroit Mercy"
        string_val: "NC State"
        string_val: "Jackson St."
        string_val: "Memphis"
        string_val: "Houston"
        string_val: "Pittsburgh"
        string_val: "UNLV"
        string_val: "Wake Forest"
        string_val: "Xavier"
        string_val: "Oklahoma"
        string_val: "Purdue"
        string_val: "Arkansas"
        string_val: "Kansas St."
        string_val: "N.C. A&T"
        string_val: "Ohio St."
        string_val: "Duke"
        string_val: "Chattanooga"
        string_val: "Indiana"
        string_val: "Eastern Ky."
        string_val: "Illinois"
        string_val: "North Carolina"
        string_val: "Missouri St."
        string_val: "Holy Cross"
        string_val: "Murray St."
        string_val: "California"
        string_val: "North Carolina"
        string_val: "North Carolina"
        string_val: "NC State"
        string_val: "Western Ky."
        string_val: "Evansville"
        string_val: "Temple"
        string_val: "Michigan St."
        string_val: "Ball St."
        string_val: "Portland St."
        string_val: "Vanderbilt"
        string_val: "George Mason"
        string_val: "Gonzaga"
        string_val: "Georgia St."
        string_val: "Illinois"
        string_val: "UTEP"
        string_val: "Xavier"
        string_val: "Stanford"
        string_val: "Texas"
        string_val: "Utah St."
        string_val: "UNCW"
        string_val: "Georgetown"
        string_val: "Syracuse"
        string_val: "Washington"
        string_val: "UNLV"
        string_val: "Massachusetts"
        string_val: "Utah"
        string_val: "Wake Forest"
        string_val: "Tennessee St."
        string_val: "Miami (OH)"
        string_val: "San Jose St."
        string_val: "Kansas"
        string_val: "Virginia Tech"
        string_val: "New Mexico St."
        string_val: "Green Bay"
        string_val: "Arizona"
        string_val: "Wake Forest"
        string_val: "Syracuse"
        string_val: "Southern Ill."
        string_val: "Murray St."
        string_val: "N.C. A&T"
        string_val: "New Orleans"
        string_val: "Stanford"
        string_val: "Providence"
        string_val: "VCU"
        string_val: "Marquette"
        string_val: "Iowa"
        string_val: "Alabama"
        string_val: "Arizona St."
        string_val: "Georgia St."
        string_val: "North Carolina"
        string_val: "Princeton"
        string_val: "Nebraska"
        string_val: "Dayton"
        string_val: "Texas"
        string_val: "Temple"
        string_val: "Rutgers"
        string_val: "Old Dominion"
        string_val: "Sam Houston St."
        string_val: "Saint Mary\'s (CA)"
        string_val: "SMU"
        string_val: "Duke"
        string_val: "LSU"
        string_val: "Louisville"
        string_val: "UNCW"
        string_val: "BYU"
        string_val: "Temple"
        string_val: "Northern Ariz."
        string_val: "Missouri"
        string_val: "Kent St."
        string_val: "Georgetown"
        string_val: "Wisconsin"
        string_val: "Gonzaga"
        string_val: "Stanford"
        string_val: "Illinois"
        string_val: "Ohio St."
        string_val: "Syracuse"
        string_val: "Memphis"
        string_val: "Wichita St."
        string_val: "Dayton"
        string_val: "Dayton"
        string_val: "Minnesota"
        string_val: "Albany (NY)"
        string_val: "FGCU"
        string_val: "Pittsburgh"
        string_val: "Northwestern St."
        string_val: "UCLA"
        string_val: "Sam Houston St."
        string_val: "Montana"
        string_val: "Georgetown"
        string_val: "Southern California"
        string_val: "San Diego St."
        string_val: "Milwaukee"
        string_val: "Fairleigh Dickinson"
        string_val: "Creighton"
        string_val: "Nevada"
        string_val: "Louisville"
        string_val: "Arizona"
        string_val: "South Ala."
        string_val: "Southern California"
        string_val: "LSU"
        string_val: "San Diego St."
        string_val: "George Mason"
        string_val: "Coastal Caro."
        string_val: "UCLA"
        string_val: "UTEP"
        string_val: "Xavier"
        string_val: "Eastern Ill."
        string_val: "Louisville"
        string_val: "Wright St."
        string_val: "Florida St."
        string_val: "Florida St."
        string_val: "Miami (OH)"
        string_val: "Michigan"
        string_val: "California"
        string_val: "La Salle"
        string_val: "Purdue"
        string_val: "DePaul"
        string_val: "Southern California"
        string_val: "Delaware"
        string_val: "Oklahoma St."
        string_val: "Wake Forest"
        string_val: "Villanova"
        string_val: "Stanford"
        string_val: "Tulsa"
        string_val: "Butler"
        string_val: "BYU"
        string_val: "Oral Roberts"
        string_val: "Bucknell"
        string_val: "Nevada"
        string_val: "Baylor"
        string_val: "Bradley"
        string_val: "Texas A&M"
        string_val: "North Texas"
        string_val: "Ohio St."
        string_val: "Arkansas"
        string_val: "Georgetown"
        string_val: "Colorado"
        string_val: "Seton Hall"
        string_val: "Maryland"
        string_val: "Oklahoma"
        string_val: "Mt. St. Mary\'s"
        string_val: "Kentucky"
        string_val: "Washington"
        string_val: "Ole Miss"
        string_val: "Florida"
        string_val: "Creighton"
        string_val: "Texas"
        string_val: "Notre Dame"
        string_val: "Wake Forest"
        string_val: "Montana"
        string_val: "Texas"
        string_val: "Memphis"
        string_val: "Xavier"
        string_val: "Kentucky"
        string_val: "Appalachian St."
        string_val: "Tennessee"
        string_val: "Georgetown"
        string_val: "Central Conn. St."
        string_val: "Alabama"
        string_val: "Siena"
        string_val: "Kansas"
        string_val: "Rhode Island"
        string_val: "La.-Monroe"
        string_val: "LSU"
        string_val: "Memphis"
        string_val: "Fairleigh Dickinson"
        string_val: "UCF"
        string_val: "Saint Mary\'s (CA)"
        string_val: "Texas A&M"
        string_val: "North Florida"
        string_val: "VCU"
        string_val: "Vanderbilt"
        string_val: "Saint Mary\'s (CA)"
        string_val: "Arkansas"
        string_val: "NC State"
        string_val: "Southern U."
        string_val: "Kentucky"
        string_val: "Villanova"
        string_val: "Richmond"
        string_val: "Western Mich."
        string_val: "SFA"
        string_val: "Arizona St."
        string_val: "BYU"
        string_val: "Maryland"
        string_val: "Jacksonville"
        string_val: "Penn St."
        string_val: "Michigan"
        string_val: "Michigan St."
        string_val: "Boston College"
        string_val: "Xavier"
        string_val: "Georgia"
        string_val: "Purdue"
        string_val: "UNC Asheville"
        string_val: "UConn"
        string_val: "Purdue"
        string_val: "Mississippi St."
        string_val: "Oregon"
        string_val: "Oakland"
        string_val: "LSU"
        string_val: "Iowa St."
        string_val: "Oklahoma"
        string_val: "Oklahoma"
        string_val: "Michigan St."
        string_val: "Stanford"
        string_val: "Tennessee"
        string_val: "Missouri St."
        string_val: "Missouri"
        string_val: "LSU"
        string_val: "Gonzaga"
        string_val: "Villanova"
        string_val: "Radford"
        string_val: "Villanova"
        string_val: "Ohio"
        string_val: "Oklahoma"
        string_val: "Tulsa"
        string_val: "Vermont"
        string_val: "Creighton"
        string_val: "BYU"
        string_val: "California"
        string_val: "Temple"
        string_val: "Albany (NY)"
        string_val: "Lamar University"
        string_val: "Pittsburgh"
        string_val: "Utah St."
        string_val: "NC State"
        string_val: "Western Mich."
        string_val: "Akron"
        string_val: "Marshall"
        string_val: "Kansas St."
        string_val: "Cal St. Fullerton"
        string_val: "Illinois"
        string_val: "Temple"
        string_val: "Cincinnati"
        string_val: "New Orleans"
        string_val: "Troy"
        string_val: "Georgetown"
        string_val: "Kansas St."
        string_val: "BYU"
        string_val: "Mt. St. Mary\'s"
        string_val: "Illinois St."
        string_val: "Oklahoma St."
        string_val: "South Ala."
        string_val: "Robert Morris"
        string_val: "North Carolina"
        string_val: "UAB"
        string_val: "Memphis"
        string_val: "Providence"
        string_val: "Col. of Charleston"
        string_val: "Nicholls St."
        string_val: "Kentucky"
        string_val: "Texas"
        string_val: "Kansas"
        string_val: "Maryland"
        string_val: "Clemson"
        string_val: "Duke"
        string_val: "Utah St."
        string_val: "Winthrop"
        string_val: "Pittsburgh"
        string_val: "Kansas"
        string_val: "Arkansas"
        string_val: "Rhode Island"
        string_val: "Illinois"
        string_val: "Georgia"
        string_val: "Saint Mary\'s (CA)"
        string_val: "Maryland"
        string_val: "Bucknell"
        string_val: "Vanderbilt"
        string_val: "Kentucky"
        string_val: "Duke"
        string_val: "Utah St."
        string_val: "Cincinnati"
        string_val: "Georgia Tech"
        string_val: "Arizona"
        string_val: "Butler"
        string_val: "Alabama"
        string_val: "DePaul"
        string_val: "San Diego St."
        string_val: "Cincinnati"
        string_val: "BYU"
        string_val: "Maryland"
        string_val: "Vermont"
        string_val: "Chattanooga"
        string_val: "Stanford"
        string_val: "Alabama"
        string_val: "Florida"
        string_val: "Southern Ill."
        string_val: "Purdue"
        string_val: "Marquette"
        string_val: "West Virginia"
        string_val: "Baylor"
        string_val: "Ark.-Pine Bluff"
        string_val: "Robert Morris"
        string_val: "Florida"
        string_val: "Michigan St."
        string_val: "Murray St."
        string_val: "Wisconsin"
        string_val: "Michigan"
        string_val: "Hampton"
        string_val: "Utah"
        string_val: "Texas Southern"
        string_val: "Butler"
        string_val: "Gonzaga"
        string_val: "Purdue"
        string_val: "Michigan St."
        string_val: "California"
        string_val: "San Diego St."
        string_val: "Oregon St."
        string_val: "San Diego St."
        string_val: "Georgetown"
        string_val: "Wisconsin"
        string_val: "Xavier"
        string_val: "Iowa"
        string_val: "North Dakota St."
        string_val: "Western Ky."
        string_val: "UCLA"
        string_val: "Akron"
        string_val: "Indiana"
        string_val: "Bucknell"
        string_val: "Eastern Wash."
        string_val: "South Fla."
        string_val: "Texas Southern"
        string_val: "Hampton"
        string_val: "UMBC"
        string_val: "Kansas"
        string_val: "Ohio St."
        string_val: "Belmont"
        string_val: "Arkansas"
        string_val: "Texas Tech"
        string_val: "Indiana"
        string_val: "Evansville"
        string_val: "Missouri St."
        string_val: "Duke"
        string_val: "UNLV"
        string_val: "Iowa St."
        string_val: "Tennessee"
        string_val: "Davidson"
        string_val: "Georgia Tech"
        string_val: "Indiana"
        string_val: "Washington"
        string_val: "Utah"
        string_val: "Louisiana"
        string_val: "Kentucky"
        string_val: "VCU"
        string_val: "Clemson"
        string_val: "Tennessee"
        string_val: "Florida"
        string_val: "Akron"
        string_val: "Syracuse"
        string_val: "South Dakota St."
        string_val: "Kansas"
        string_val: "Boston College"
        string_val: "Alabama"
        string_val: "UCLA"
        string_val: "Villanova"
        string_val: "Indiana"
        string_val: "Clemson"
        string_val: "Utah"
        string_val: "Santa Clara"
        string_val: "McNeese"
        string_val: "NC State"
        string_val: "Iowa"
        string_val: "Little Rock"
        string_val: "San Diego St."
        string_val: "Georgetown"
        string_val: "Louisiana"
        string_val: "Nevada"
        string_val: "Alabama"
        string_val: "Iowa St."
        string_val: "UTEP"
        string_val: "Louisiana"
        string_val: "DePaul"
        string_val: "Michigan"
        string_val: "South Fla."
        string_val: "Towson"
        string_val: "Arizona"
        string_val: "Morgan St."
        string_val: "Michigan"
        string_val: "Charlotte"
        string_val: "Syracuse"
        string_val: "Southeastern La."
        string_val: "Marquette"
        string_val: "Southern Ill."
        string_val: "Illinois"
        string_val: "Colorado"
        string_val: "Kent St."
        string_val: "Georgia"
        string_val: "Eastern Mich."
        string_val: "Alabama"
        string_val: "Marquette"
        string_val: "UAB"
        string_val: "Chattanooga"
        string_val: "Duke"
        string_val: "Austin Peay"
        string_val: "Georgetown"
        string_val: "Northern Colo."
        string_val: "St. John\'s (NY)"
        string_val: "Temple"
        string_val: "Oklahoma"
        string_val: "UTSA"
        string_val: "UNCG"
        string_val: "Kansas"
        string_val: "Western Ky."
        string_val: "San Diego"
        string_val: "Cincinnati"
        string_val: "Saint Joseph\'s"
        string_val: "South Carolina St."
        string_val: "New Mexico"
        string_val: "Louisiana"
        string_val: "UConn"
        string_val: "Virginia"
        string_val: "Long Beach St."
        string_val: "Miami (FL)"
        string_val: "UNLV"
        string_val: "Cincinnati"
        string_val: "Penn"
        string_val: "Louisville"
        string_val: "Utah St."
        string_val: "Notre Dame"
        string_val: "Missouri"
        string_val: "Alabama"
        string_val: "Louisville"
        string_val: "Mississippi St."
        string_val: "Arkansas"
        string_val: "Robert Morris"
        string_val: "Oklahoma St."
        string_val: "LSU"
        string_val: "UConn"
        string_val: "SFA"
        string_val: "FIU"
        string_val: "Belmont"
        string_val: "Gonzaga"
        string_val: "Tulsa"
        string_val: "UAB"
        string_val: "SMU"
        string_val: "New Mexico St."
        string_val: "Memphis"
        string_val: "Texas Southern"
        string_val: "DePaul"
        string_val: "San Diego St."
        string_val: "Arizona"
        string_val: "Idaho"
        string_val: "Kent St."
        string_val: "SFA"
        string_val: "Iowa St."
        string_val: "Georgetown"
        string_val: "North Carolina"
        string_val: "Arkansas St."
        string_val: "San Francisco"
        string_val: "West Virginia"
        string_val: "Arizona"
        string_val: "Arkansas"
        string_val: "Canisius"
        string_val: "Long Beach St."
        string_val: "LSU"
        string_val: "Tulsa"
        string_val: "Robert Morris"
        string_val: "Clemson"
        string_val: "Siena"
        string_val: "Portland"
        string_val: "Louisiana Tech"
        string_val: "Texas"
        string_val: "La.-Monroe"
        string_val: "Col. of Charleston"
        string_val: "Louisville"
        string_val: "Pepperdine"
        string_val: "Duke"
        string_val: "Indiana"
        string_val: "Pacific"
        string_val: "Texas Tech"
        string_val: "Montana"
        string_val: "Texas Southern"
        string_val: "Boston College"
        string_val: "Villanova"
        string_val: "Austin Peay"
        string_val: "Marist"
        string_val: "Oklahoma St."
        string_val: "Minnesota"
        string_val: "Michigan St."
        string_val: "DePaul"
        string_val: "ETSU"
        string_val: "Houston"
        string_val: "Southern California"
        string_val: "LSU"
        string_val: "Prairie View"
        string_val: "CSUN"
        string_val: "New Mexico St."
        string_val: "Dayton"
        string_val: "Western Ky."
        string_val: "Lehigh"
        string_val: "Syracuse"
        string_val: "Colgate"
        string_val: "North Dakota St."
        string_val: "Howard"
        string_val: "Pittsburgh"
        string_val: "Ohio St."
        string_val: "Davidson"
        string_val: "Valparaiso"
        string_val: "Valparaiso"
        string_val: "Saint Louis"
        string_val: "UC Santa Barbara"
        string_val: "Creighton"
        string_val: "Iona"
        string_val: "Massachusetts"
        string_val: "Houston"
        string_val: "Butler"
        string_val: "Wichita St."
        string_val: "Xavier"
        string_val: "Charlotte"
        string_val: "Northeastern"
        string_val: "Utah"
        string_val: "Southern U."
        string_val: "Cincinnati"
        string_val: "Eastern Ky."
        string_val: "Utah"
        string_val: "Utah"
        string_val: "Hampton"
        string_val: "Michigan"
        string_val: "Western Ky."
        string_val: "Maryland"
        string_val: "Louisville"
        string_val: "St. Bonaventure"
        string_val: "Davidson"
        string_val: "Indiana"
        string_val: "Iowa St."
        string_val: "Wisconsin"
        string_val: "Rider"
        string_val: "IUPUI"
        string_val: "Kansas"
        string_val: "West Virginia"
        string_val: "Alabama"
        string_val: "Florida St."
        string_val: "Baylor"
        string_val: "Wichita St."
        string_val: "Cincinnati"
        string_val: "Wake Forest"
        string_val: "Wisconsin"
        string_val: "Notre Dame"
        string_val: "Kansas St."
        string_val: "Louisville"
        string_val: "Western Ky."
        string_val: "Xavier"
        string_val: "Fla. Atlantic"
        string_val: "Illinois"
        string_val: "Michigan"
        string_val: "Loyola Marymount"
        string_val: "Tulsa"
        string_val: "N.C. A&T"
        string_val: "Virginia"
        string_val: "Georgetown"
        string_val: "North Carolina"
        string_val: "Arizona"
        string_val: "Syracuse"
        string_val: "Duke"
        string_val: "Murray St."
        string_val: "Texas Southern"
        string_val: "Memphis"
        string_val: "Bradley"
        string_val: "Winthrop"
        string_val: "Creighton"
        string_val: "San Diego"
        string_val: "Oklahoma St."
        string_val: "Xavier"
        string_val: "South Dakota St."
        string_val: "Colorado"
        string_val: "Wake Forest"
        string_val: "Wisconsin"
        string_val: "Maryland"
        string_val: "Florida"
        string_val: "Old Dominion"
        string_val: "Old Dominion"
        string_val: "Texas"
        string_val: "VCU"
        string_val: "Pittsburgh"
        string_val: "Wofford"
        string_val: "Charlotte"
        string_val: "Gonzaga"
        string_val: "Penn"
        string_val: "Iowa"
        string_val: "Purdue"
        string_val: "Butler"
        string_val: "Memphis"
        string_val: "Michigan St."
        string_val: "UNCG"
        string_val: "Georgia Tech"
        string_val: "Delaware"
        string_val: "Temple"
        string_val: "UTEP"
        string_val: "Missouri"
        string_val: "Florida"
        string_val: "West Virginia"
        string_val: "Louisiana Tech"
        string_val: "St. John\'s (NY)"
        string_val: "St. John\'s (NY)"
        string_val: "UCLA"
        string_val: "Duke"
        string_val: "UCLA"
        string_val: "Georgetown"
        string_val: "UCLA"
        string_val: "UC Santa Barbara"
        string_val: "George Mason"
        string_val: "Oregon"
        string_val: "Butler"
        string_val: "Jackson St."
        string_val: "BYU"
        string_val: "Villanova"
        string_val: "UCLA"
        string_val: "Purdue"
        string_val: "Ohio St."
        string_val: "South Ala."
        string_val: "Milwaukee"
        string_val: "Tulane"
        string_val: "Evansville"
        string_val: "Western Ky."
        string_val: "TCU"
        string_val: "Kansas"
        string_val: "Northwestern St."
        string_val: "Ball St."
        string_val: "McNeese"
        string_val: "Louisville"
        string_val: "Charlotte"
        string_val: "Syracuse"
        string_val: "Fairfield"
        string_val: "UTSA"
        string_val: "Kent St."
        string_val: "Duke"
        string_val: "Oklahoma"
        string_val: "LSU"
        string_val: "Alabama"
        string_val: "George Washington"
        string_val: "New Mexico St."
        string_val: "Fairfield"
        string_val: "Auburn"
        string_val: "UNLV"
        string_val: "VCU"
        string_val: "Utah"
        string_val: "Syracuse"
        string_val: "Duke"
        string_val: "UNCW"
        string_val: "Cincinnati"
        string_val: "Central Conn. St."
        string_val: "UConn"
        string_val: "Illinois St."
        string_val: "UCLA"
        string_val: "Auburn"
        string_val: "Utah St."
        string_val: "Duke"
        string_val: "Duke"
        string_val: "BYU"
        string_val: "Manhattan"
        string_val: "Michigan"
        string_val: "Arkansas"
        string_val: "Saint Louis"
        string_val: "Colorado St."
        string_val: "Wichita St."
        string_val: "Oregon St."
        string_val: "Siena"
        string_val: "Morehead St."
        string_val: "Oregon"
        string_val: "Little Rock"
        string_val: "Arizona"
        string_val: "N.C. A&T"
        string_val: "Memphis"
        string_val: "Villanova"
        string_val: "DePaul"
        string_val: "Kentucky"
        string_val: "Georgia Tech"
        string_val: "Georgia Tech"
        string_val: "Purdue"
        string_val: "Temple"
        string_val: "Florida"
        string_val: "Saint Mary\'s (CA)"
        string_val: "Purdue"
        string_val: "Michigan St."
        string_val: "Oklahoma"
        string_val: "UT Arlington"
        string_val: "Arkansas"
        string_val: "Texas"
        string_val: "UCLA"
        string_val: "UAB"
        string_val: "Boston College"
        string_val: "Pepperdine"
        string_val: "Ball St."
        string_val: "Mississippi St."
        string_val: "South Carolina"
        string_val: "Georgia Tech"
        string_val: "Penn"
        string_val: "Louisville"
        string_val: "Duke"
        string_val: "Saint Mary\'s (CA)"
        string_val: "Wisconsin"
        string_val: "Iowa St."
        string_val: "Old Dominion"
        string_val: "Kentucky"
        string_val: "Tennessee"
        string_val: "Vermont"
        string_val: "Maryland"
        string_val: "Duke"
        string_val: "UC Santa Barbara"
        string_val: "New Mexico St."
        string_val: "Robert Morris"
        string_val: "Memphis"
        string_val: "Southern California"
        string_val: "Pittsburgh"
        string_val: "Murray St."
        string_val: "Temple"
        string_val: "Syracuse"
        string_val: "Utah"
        string_val: "Kansas"
        string_val: "Louisville"
        string_val: "Valparaiso"
        string_val: "Missouri St."
        string_val: "UConn"
        string_val: "UNI"
        string_val: "Florida"
        string_val: "Valparaiso"
        string_val: "Winthrop"
        string_val: "Saint Louis"
        string_val: "Oklahoma St."
        string_val: "UNLV"
        string_val: "Miami (OH)"
        string_val: "St. John\'s (NY)"
        string_val: "Detroit Mercy"
        string_val: "Georgia Tech"
        string_val: "Iowa St."
        string_val: "Georgia Tech"
        string_val: "Auburn"
        string_val: "Murray St."
        string_val: "UC Santa Barbara"
        string_val: "Davidson"
        string_val: "Towson"
        string_val: "Green Bay"
        string_val: "Delaware"
        string_val: "Detroit Mercy"
        string_val: "Arizona"
        string_val: "Ohio St."
        string_val: "Maryland"
        string_val: "Samford"
        string_val: "Indiana"
        string_val: "Wichita St."
        string_val: "Ohio St."
        string_val: "Northern Ill."
        string_val: "Texas"
        string_val: "NC State"
        string_val: "New Mexico St."
        string_val: "Middle Tenn."
        string_val: "Southern Ill."
        string_val: "Bucknell"
        string_val: "Hawaii"
        string_val: "Samford"
        string_val: "Colorado St."
        string_val: "Coppin St."
        string_val: "Kentucky"
        string_val: "Virginia"
        string_val: "Missouri"
        string_val: "Oklahoma"
        string_val: "Ole Miss"
        string_val: "Southern U."
        string_val: "Austin Peay"
        string_val: "Arizona St."
        string_val: "Stanford"
        string_val: "Western Ky."
        string_val: "Georgia Tech"
        string_val: "Miami (FL)"
        string_val: "Saint Peter\'s"
        string_val: "Charlotte"
        string_val: "Michigan St."
        string_val: "Missouri"
        string_val: "Kansas"
        string_val: "UNLV"
        string_val: "Valparaiso"
        string_val: "Kansas"
        string_val: "Murray St."
        string_val: "La.-Monroe"
        string_val: "Boston College"
        string_val: "Kansas"
        string_val: "Notre Dame"
        string_val: "Nicholls St."
        string_val: "Miami (OH)"
        string_val: "Syracuse"
        string_val: "Wichita St."
        string_val: "Notre Dame"
        string_val: "Tulsa"
        string_val: "Kansas St."
        string_val: "Weber St."
        string_val: "Richmond"
        string_val: "Belmont"
        string_val: "A&M-Corpus Christi"
        string_val: "Mississippi Val."
        string_val: "Nebraska"
        string_val: "Michigan"
        string_val: "Seton Hall"
        string_val: "Memphis"
        string_val: "Clemson"
        string_val: "Maryland"
        string_val: "Buffalo"
        string_val: "Nebraska"
        string_val: "Notre Dame"
        string_val: "Vanderbilt"
        string_val: "Lehigh"
        string_val: "Missouri"
        string_val: "Utah"
        string_val: "Illinois"
        string_val: "Eastern Ill."
        string_val: "Wisconsin"
        string_val: "Butler"
        string_val: "Ole Miss"
        string_val: "Cleveland St."
        string_val: "Michigan St."
        string_val: "Pittsburgh"
        string_val: "Tennessee"
        string_val: "Miami (OH)"
        string_val: "Tulsa"
        string_val: "Wake Forest"
        string_val: "UNLV"
        string_val: "Xavier"
        string_val: "Eastern Mich."
        string_val: "Colgate"
        string_val: "LSU"
        string_val: "Cincinnati"
        string_val: "Louisville"
        string_val: "Notre Dame"
        string_val: "St. John\'s (NY)"
        string_val: "Mississippi St."
        string_val: "UNLV"
        string_val: "Iowa"
        string_val: "Xavier"
        string_val: "Delaware St."
        string_val: "La.-Monroe"
        string_val: "Pepperdine"
        string_val: "Winthrop"
        string_val: "Texas A&M"
        string_val: "Michigan St."
        string_val: "Creighton"
        string_val: "Kansas"
        string_val: "Albany (NY)"
        string_val: "UConn"
        string_val: "St. John\'s (NY)"
        string_val: "Ohio St."
        string_val: "UNI"
        string_val: "Illinois"
        string_val: "Tennessee St."
        string_val: "Manhattan"
        string_val: "Southern California"
        string_val: "La.-Monroe"
        string_val: "ETSU"
        string_val: "Texas Tech"
        string_val: "Liberty"
        string_val: "Wake Forest"
        string_val: "Oklahoma St."
        string_val: "Pittsburgh"
        string_val: "Alabama"
        string_val: "Arizona"
        string_val: "Pittsburgh"
        string_val: "Kentucky"
        string_val: "Holy Cross"
        string_val: "Missouri"
        string_val: "Kentucky"
        string_val: "Texas St."
        string_val: "Texas"
        string_val: "Maryland"
        string_val: "Wofford"
        string_val: "Texas"
        string_val: "Pepperdine"
        string_val: "Tennessee"
        string_val: "Oklahoma"
        string_val: "Texas St."
        string_val: "UTEP"
        string_val: "UCLA"
        string_val: "Clemson"
        string_val: "Temple"
        string_val: "Syracuse"
        string_val: "UNI"
        string_val: "Iona"
        string_val: "Notre Dame"
        string_val: "Creighton"
        string_val: "Texas"
        string_val: "Southern Ill."
        string_val: "Hampton"
        string_val: "Nevada"
        string_val: "Alabama St."
        string_val: "Princeton"
        string_val: "VCU"
        string_val: "Stanford"
        string_val: "Cincinnati"
        string_val: "UConn"
        string_val: "Oregon"
        string_val: "Liberty"
        string_val: "Xavier"
        string_val: "Winthrop"
        string_val: "Georgetown"
        string_val: "Auburn"
        string_val: "Louisville"
        string_val: "Villanova"
        string_val: "Chattanooga"
        string_val: "Arizona"
        string_val: "Louisiana Tech"
        string_val: "Illinois St."
        string_val: "Niagara"
        string_val: "N.C. A&T"
        string_val: "New Mexico St."
        string_val: "Syracuse"
        string_val: "Memphis"
        string_val: "Eastern Wash."
        string_val: "Saint Joseph\'s"
        string_val: "Pittsburgh"
        string_val: "Indiana"
        string_val: "Oral Roberts"
        string_val: "UNC Asheville"
        string_val: "Wisconsin"
        string_val: "Central Conn. St."
        string_val: "Wagner"
        string_val: "California"
        string_val: "UCF"
        string_val: "UCLA"
        string_val: "Western Mich."
        string_val: "Cornell"
        string_val: "Purdue"
        string_val: "Col. of Charleston"
        string_val: "Rhode Island"
        string_val: "Marquette"
        string_val: "Mercer"
        string_val: "San Diego St."
        string_val: "Massachusetts"
        string_val: "Ohio"
        string_val: "Iowa"
        string_val: "Ohio St."
        string_val: "UCLA"
        string_val: "Boston U."
        string_val: "Dayton"
        string_val: "Oklahoma St."
        string_val: "Kansas St."
        string_val: "Xavier"
        string_val: "Michigan St."
        string_val: "Charleston So."
        string_val: "Ball St."
        string_val: "Maryland"
        string_val: "Iowa St."
        string_val: "Houston"
        string_val: "Little Rock"
        string_val: "Southern California"
        string_val: "Georgia Tech"
        string_val: "Wisconsin"
        string_val: "Pittsburgh"
        string_val: "Saint Louis"
        string_val: "UTEP"
        string_val: "Oregon"
        string_val: "Oklahoma"
        string_val: "Kansas"
        string_val: "Evansville"
        string_val: "Florida St."
        string_val: "Ole Miss"
        string_val: "Arkansas"
        string_val: "Arizona"
        string_val: "Monmouth"
        string_val: "Kentucky"
        string_val: "Boston College"
        string_val: "Illinois"
        string_val: "Virginia Tech"
        string_val: "VCU"
        string_val: "Chattanooga"
        string_val: "Iowa"
        string_val: "Manhattan"
        string_val: "Kansas"
        string_val: "Indiana"
        string_val: "Cal Poly"
        string_val: "Utah"
        string_val: "Valparaiso"
        string_val: "California"
        string_val: "Oklahoma St."
        string_val: "Boston College"
        string_val: "Kansas"
        string_val: "Nevada"
        string_val: "UNI"
        string_val: "New Mexico"
        string_val: "Southern U."
        string_val: "Arizona St."
        string_val: "Utah St."
        string_val: "Ohio"
        string_val: "Santa Clara"
        string_val: "Arizona"
        string_val: "Ill.-Chicago"
        string_val: "Niagara"
        string_val: "Richmond"
        string_val: "Southern Ill."
        string_val: "Kentucky"
        string_val: "UAB"
        string_val: "South Carolina St."
        string_val: "Duke"
        string_val: "Pacific"
        string_val: "Boston U."
        string_val: "Arizona"
        string_val: "Illinois"
        string_val: "Marquette"
        string_val: "La Salle"
        string_val: "Miami (OH)"
        string_val: "California"
        string_val: "Navy"
        string_val: "Pepperdine"
        string_val: "Oregon St."
        string_val: "Milwaukee"
        string_val: "Akron"
        string_val: "Illinois"
        string_val: "Villanova"
        string_val: "Montana"
        string_val: "Florida A&M"
        string_val: "UAB"
        string_val: "Utah"
        string_val: "Minnesota"
        string_val: "Saint Louis"
        string_val: "Utah"
        string_val: "Arizona St."
        string_val: "Stanford"
        string_val: "Saint Joseph\'s"
        string_val: "Tulane"
        string_val: "UCLA"
        string_val: "Duke"
        string_val: "South Carolina St."
        string_val: "Mt. St. Mary\'s"
        string_val: "Iowa"
        string_val: "Illinois"
        string_val: "Stanford"
        string_val: "Colorado St."
        string_val: "Arizona"
        string_val: "Siena"
        string_val: "Wofford"
        string_val: "Ball St."
        string_val: "Manhattan"
        string_val: "Memphis"
        string_val: "UNLV"
        string_val: "Kansas"
        string_val: "St. John\'s (NY)"
        string_val: "Purdue"
        string_val: "Arizona"
        string_val: "Nebraska"
        string_val: "Creighton"
        string_val: "UTEP"
        string_val: "Kansas St."
        string_val: "Michigan St."
        string_val: "Syracuse"
        string_val: "Murray St."
        string_val: "Iona"
        string_val: "Florida"
        string_val: "Virginia"
        string_val: "Boston U."
        string_val: "Creighton"
        string_val: "Weber St."
        string_val: "St. John\'s (NY)"
        string_val: "Penn"
        string_val: "Ohio"
        string_val: "Norfolk St."
        string_val: "Western Ky."
        string_val: "Marquette"
        string_val: "Virginia"
        string_val: "Notre Dame"
        string_val: "Texas A&M"
        string_val: "North Carolina"
        string_val: "UConn"
        string_val: "Wichita St."
        string_val: "Michigan St."
        string_val: "Long Beach St."
        string_val: "Western Ky."
        string_val: "Air Force"
        string_val: "UNLV"
        string_val: "Gonzaga"
        string_val: "Florida"
        string_val: "Minnesota"
        string_val: "Notre Dame"
        string_val: "Georgia"
        string_val: "North Texas"
        string_val: "BYU"
        string_val: "Xavier"
        string_val: "Boise St."
        string_val: "Kansas St."
        string_val: "Ole Miss"
        string_val: "Michigan"
        string_val: "Wyoming"
        string_val: "Alabama"
        string_val: "New Mexico St."
        string_val: "Auburn"
        string_val: "Florida"
        string_val: "New Mexico"
        string_val: "LSU"
        string_val: "North Carolina"
        string_val: "Bradley"
        string_val: "Davidson"
        string_val: "Minnesota"
        string_val: "Boise St."
        string_val: "Michigan St."
        string_val: "Drexel"
        string_val: "Duke"
        string_val: "Idaho"
        string_val: "Southeast Mo. St."
        string_val: "Texas"
        string_val: "Oklahoma"
        string_val: "Maryland"
        string_val: "CSUN"
        string_val: "Saint Louis"
        string_val: "Temple"
        string_val: "Gonzaga"
        string_val: "LIU Brooklyn"
        string_val: "Fresno St."
        string_val: "Green Bay"
        string_val: "Alabama St."
        string_val: "Florida St."
        string_val: "Michigan St."
        string_val: "Gonzaga"
        string_val: "Alabama A&M"
        string_val: "BYU"
        string_val: "Oklahoma St."
        string_val: "Mississippi Val."
        string_val: "North Carolina"
        string_val: "Providence"
        string_val: "Davidson"
        string_val: "Arizona"
        string_val: "UConn"
        string_val: "Iowa St."
        string_val: "Iona"
        string_val: "VCU"
        string_val: "Providence"
        string_val: "Providence"
        string_val: "North Carolina"
        string_val: "Oklahoma"
        string_val: "Saint Peter\'s"
        string_val: "Western Caro."
        string_val: "Washington"
        string_val: "UNI"
        string_val: "Gonzaga"
        string_val: "Baylor"
        string_val: "Dayton"
        string_val: "Arizona"
        string_val: "Maryland"
        string_val: "Holy Cross"
        string_val: "Virginia Tech"
        string_val: "Montana St."
        string_val: "Northern Ariz."
        string_val: "Massachusetts"
        string_val: "Memphis"
        string_val: "Georgia Tech"
        string_val: "Mississippi St."
        string_val: "Drexel"
        string_val: "Georgia"
        string_val: "Montana St."
        string_val: "Vermont"
        string_val: "New Mexico"
        string_val: "Green Bay"
        string_val: "Kansas"
        string_val: "Gonzaga"
        string_val: "Hawaii"
        string_val: "Iona"
        string_val: "Texas"
        string_val: "Missouri"
        string_val: "Vanderbilt"
        string_val: "Florida"
        string_val: "Penn St."
        string_val: "Santa Clara"
        string_val: "Indiana St."
        string_val: "Missouri"
        string_val: "Washington"
        string_val: "Kentucky"
        string_val: "Clemson"
        string_val: "Purdue"
        string_val: "Georgetown"
        string_val: "Harvard"
        string_val: "Murray St."
        string_val: "Villanova"
        string_val: "Arkansas"
        string_val: "Princeton"
        string_val: "Iowa St."
        string_val: "Southern U."
        string_val: "UAB"
        string_val: "Utah"
        string_val: "Auburn"
        string_val: "Oakland"
        string_val: "Michigan St."
        string_val: "Iowa St."
        string_val: "Notre Dame"
        string_val: "Wisconsin"
        string_val: "Michigan"
        string_val: "North Texas"
        string_val: "Murray St."
        string_val: "Miami (OH)"
        string_val: "Illinois"
        string_val: "UCLA"
        string_val: "Alabama"
        string_val: "Loyola Marymount"
        string_val: "Kentucky"
        string_val: "Middle Tenn."
        string_val: "Long Beach St."
        string_val: "Missouri"
        string_val: "Butler"
        string_val: "Alabama"
        string_val: "UConn"
        string_val: "Oklahoma"
        string_val: "New Mexico"
        string_val: "Middle Tenn."
        string_val: "Providence"
        string_val: "Illinois"
        string_val: "Boise St."
        string_val: "Kansas"
        string_val: "Florida St."
        string_val: "Duke"
        string_val: "Purdue"
        string_val: "Georgetown"
        string_val: "Southern California"
        string_val: "Michigan St."
        string_val: "North Carolina"
        string_val: "NC State"
        string_val: "Arizona"
        string_val: "American"
        string_val: "UNI"
        string_val: "Baylor"
        string_val: "Purdue"
        string_val: "LSU"
        string_val: "Cincinnati"
        string_val: "North Carolina"
        string_val: "Arizona"
        string_val: "Bucknell"
        string_val: "Arizona"
        string_val: "Fresno St."
        string_val: "Oregon"
        string_val: "Kentucky"
        string_val: "Oregon"
        string_val: "Coastal Caro."
        string_val: "Drake"
        string_val: "San Diego"
        string_val: "Arizona"
        string_val: "Duke"
        string_val: "UCLA"
        string_val: "Gonzaga"
        string_val: "Virginia"
        string_val: "West Virginia"
        string_val: "Ole Miss"
        string_val: "Purdue"
        string_val: "Minnesota"
        string_val: "Pittsburgh"
        string_val: "Georgia"
        string_val: "Hawaii"
        string_val: "Georgia St."
        string_val: "Gonzaga"
        string_val: "Virginia"
        string_val: "UC Santa Barbara"
        string_val: "Notre Dame"
        string_val: "Iowa"
        string_val: "Missouri"
        string_val: "San Diego St."
        string_val: "BYU"
        string_val: "Loyola Maryland"
        string_val: "Belmont"
        string_val: "North Carolina"
        string_val: "Harvard"
        string_val: "Weber St."
        string_val: "Saint Francis (PA)"
        string_val: "Jackson St."
        string_val: "Cornell"
        string_val: "Valparaiso"
        string_val: "Xavier"
        string_val: "Seton Hall"
        string_val: "Ohio St."
        string_val: "Gonzaga"
        string_val: "Vermont"
        string_val: "Iowa"
        string_val: "Texas Southern"
        string_val: "South Fla."
        string_val: "Louisville"
        string_val: "Wyoming"
        string_val: "Oregon St."
        string_val: "Louisville"
        string_val: "UTEP"
        string_val: "Kansas"
        string_val: "Georgetown"
        string_val: "Iowa"
        string_val: "Kentucky"
        string_val: "Duke"
        string_val: "Gonzaga"
        string_val: "Ohio St."
        string_val: "Chattanooga"
        string_val: "Purdue"
        string_val: "Washington"
        string_val: "Albany (NY)"
        string_val: "UCF"
        string_val: "New Mexico"
        string_val: "UTSA"
        string_val: "Nebraska"
        string_val: "Missouri"
        string_val: "Texas A&M"
        string_val: "Louisiana"
        string_val: "New Mexico St."
        string_val: "Memphis"
        string_val: "Belmont"
        string_val: "Central Mich."
        string_val: "Oklahoma St."
        string_val: "Radford"
        string_val: "Syracuse"
        string_val: "Colorado St."
        string_val: "Arizona"
        string_val: "Lehigh"
        string_val: "California"
        string_val: "Baylor"
        string_val: "Indiana St."
        string_val: "Valparaiso"
        string_val: "Cincinnati"
        string_val: "Florida"
        string_val: "St. John\'s (NY)"
        string_val: "Virginia"
        string_val: "Minnesota"
        string_val: "Stanford"
        string_val: "Florida St."
        string_val: "Southern U."
        string_val: "Oklahoma St."
        string_val: "Louisville"
        string_val: "Vanderbilt"
        string_val: "Weber St."
        string_val: "Xavier"
        string_val: "Pepperdine"
        string_val: "UTEP"
        string_val: "Creighton"
        string_val: "Arizona"
        string_val: "New Mexico"
        string_val: "Oklahoma"
        string_val: "Florida St."
        string_val: "Santa Clara"
        string_val: "UTEP"
        string_val: "Virginia"
        string_val: "UAB"
        string_val: "George Washington"
        string_val: "Oklahoma"
        string_val: "UNLV"
        string_val: "Arkansas"
        string_val: "Boston College"
        string_val: "Pacific"
        string_val: "BYU"
        string_val: "Murray St."
        string_val: "Utah St."
        string_val: "Oklahoma St."
        string_val: "Illinois St."
        string_val: "Kentucky"
        string_val: "Boise St."
        string_val: "Illinois"
        string_val: "Cincinnati"
        string_val: "George Washington"
        string_val: "Davidson"
        string_val: "Ohio St."
        string_val: "Virginia"
        string_val: "Florida"
        string_val: "Coastal Caro."
        string_val: "Xavier"
        string_val: "Temple"
        string_val: "UCLA"
        string_val: "Seton Hall"
        string_val: "South Ala."
        string_val: "North Carolina"
        string_val: "Temple"
        string_val: "Fairleigh Dickinson"
        string_val: "ETSU"
        string_val: "Southern Ill."
        string_val: "Wisconsin"
        string_val: "BYU"
        string_val: "Cornell"
        string_val: "UCLA"
        string_val: "Navy"
        string_val: "Miami (FL)"
        string_val: "Marquette"
        string_val: "Syracuse"
        string_val: "Wisconsin"
        string_val: "Memphis"
        string_val: "Ohio St."
        string_val: "Louisville"
        string_val: "Colorado St."
        string_val: "Vanderbilt"
        string_val: "LSU"
        string_val: "Charlotte"
        string_val: "UConn"
        string_val: "Oklahoma"
        string_val: "Florida A&M"
        string_val: "Missouri"
        string_val: "Arizona"
        string_val: "Xavier"
        string_val: "Tulsa"
        string_val: "ETSU"
        string_val: "Louisiana Tech"
        string_val: "Missouri"
        string_val: "Pittsburgh"
        string_val: "Ill.-Chicago"
        string_val: "Winthrop"
        string_val: "George Washington"
        string_val: "Tulane"
        string_val: "Ga. Southern"
        string_val: "Marist"
        string_val: "Oakland"
        string_val: "Wright St."
        string_val: "VCU"
        string_val: "Vanderbilt"
        string_val: "Morehead St."
        string_val: "New Mexico St."
        string_val: "North Dakota St."
        string_val: "Alcorn"
        string_val: "Wake Forest"
        string_val: "Oklahoma"
        string_val: "Winthrop"
        string_val: "BYU"
        string_val: "St. John\'s (NY)"
        string_val: "BYU"
        string_val: "BYU"
        string_val: "Cincinnati"
        string_val: "Indiana"
        string_val: "Iowa St."
        string_val: "Xavier"
        string_val: "Miami (FL)"
        string_val: "Pittsburgh"
        string_val: "Iowa St."
        string_val: "Michigan"
        string_val: "Texas A&M"
        string_val: "Mississippi Val."
        string_val: "Western Ky."
        string_val: "Central Mich."
        string_val: "Kansas"
        string_val: "Ole Miss"
        string_val: "Weber St."
        string_val: "Little Rock"
        string_val: "Georgia Tech"
        string_val: "Utah"
        string_val: "Kansas St."
        string_val: "Duke"
        string_val: "Ohio St."
        string_val: "Iowa"
        string_val: "Georgetown"
        string_val: "Loyola Marymount"
        string_val: "Missouri St."
        string_val: "Idaho St."
        string_val: "Ball St."
        string_val: "Maryland"
        string_val: "La.-Monroe"
        string_val: "Wyoming"
        string_val: "Seton Hall"
        string_val: "Montana"
        string_val: "Charlotte"
        string_val: "Michigan St."
        string_val: "Navy"
        string_val: "South Ala."
        string_val: "Stanford"
        string_val: "Arizona"
        string_val: "North Carolina"
        string_val: "Maryland"
        string_val: "New Mexico"
        string_val: "Florida"
        string_val: "Georgetown"
        string_val: "Dayton"
        string_val: "Michigan"
        string_val: "Memphis"
        string_val: "Saint Mary\'s (CA)"
        string_val: "Utah St."
        string_val: "Illinois"
        string_val: "Mississippi St."
        string_val: "Pittsburgh"
        string_val: "La Salle"
        string_val: "Tennessee"
        string_val: "Seton Hall"
        string_val: "Gonzaga"
        string_val: "Ohio St."
      }
    }
  }
}
node {
  name: "tensors/component_1"
  op: "Const"
  device: "/device:CPU:0"
  attr {
    key: "_output_shapes"
    value {
      list {
        shape {
          dim {
            size: 3966
          }
        }
      }
    }
  }
  attr {
    key: "dtype"
    value {
      type: DT_INT64
    }
  }
  attr {
    key: "value"
    value {
      tensor {
        dtype: DT_INT64
        tensor_shape {
          dim {
            size: 3966
          }
        }
        tensor_content: "…"
      }
    }
  }
}
node {
  name: "tensors/component_2"
  op: "Const"
  device: "/device:CPU:0"
  attr {
    key: "_output_shapes"
    value {
      list {
        shape {
          dim {
            size: 3966
          }
        }
      }
    }
  }
  attr {
    key: "dtype"
    value {
      type: DT_STRING
    }
  }
  attr {
    key: "value"
    value {
      tensor {
        dtype: DT_STRING
        tensor_shape {
          dim {
            size: 3966
          }
        }
        string_val: "Indiana"
        string_val: "Texas Tech"
        string_val: "Southern Utah"
        string_val: "Washington St."
        string_val: "North Carolina"
        string_val: "Mercer"
        string_val: "Iowa St."
        string_val: "George Washington"
        string_val: "Syracuse"
        string_val: "Illinois"
        string_val: "UAB"
        string_val: "UNCW"
        string_val: "DePaul"
        string_val: "Robert Morris"
        string_val: "UConn"
        string_val: "Kentucky"
        string_val: "Indiana"
        string_val: "Wisconsin"
        string_val: "Siena"
        string_val: "Kansas"
        string_val: "George Mason"
        string_val: "Vanderbilt"
        string_val: "TCU"
        string_val: "Middle Tenn."
        string_val: "Tulsa"
        string_val: "West Virginia"
        string_val: "Valparaiso"
        string_val: "Iowa"
        string_val: "Iowa St."
        string_val: "Holy Cross"
        string_val: "Cornell"
        string_val: "Wake Forest"
        string_val: "North Carolina"
        string_val: "Massachusetts"
        string_val: "Princeton"
        string_val: "Ohio St."
        string_val: "ETSU"
        string_val: "Old Dominion"
        string_val: "Penn"
        string_val: "Marquette"
        string_val: "Indiana"
        string_val: "Holy Cross"
        string_val: "St. John\'s (NY)"
        string_val: "Penn St."
        string_val: "Wake Forest"
        string_val: "Saint Joseph\'s"
        string_val: "South Ala."
        string_val: "Mississippi St."
        string_val: "Bucknell"
        string_val: "Louisville"
        string_val: "Indiana"
        string_val: "Princeton"
        string_val: "Villanova"
        string_val: "NC State"
        string_val: "UNLV"
        string_val: "Virginia"
        string_val: "ETSU"
        string_val: "Florida St."
        string_val: "Texas"
        string_val: "George Mason"
        string_val: "New Mexico St."
        string_val: "Coppin St."
        string_val: "Wisconsin"
        string_val: "Temple"
        string_val: "Providence"
        string_val: "Boise St."
        string_val: "Oklahoma"
        string_val: "Virginia"
        string_val: "Penn St."
        string_val: "Mississippi St."
        string_val: "Oklahoma St."
        string_val: "Butler"
        string_val: "NC State"
        string_val: "Penn"
        string_val: "Illinois"
        string_val: "UConn"
        string_val: "Duke"
        string_val: "James Madison"
        string_val: "North Carolina"
        string_val: "Boston College"
        string_val: "Purdue"
        string_val: "St. Bonaventure"
        string_val: "Villanova"
        string_val: "Northeastern"
        string_val: "Penn"
        string_val: "Murray St."
        string_val: "Georgia"
        string_val: "Cincinnati"
        string_val: "Colorado"
        string_val: "James Madison"
        string_val: "Temple"
        string_val: "Temple"
        string_val: "Ohio"
        string_val: "Oklahoma"
        string_val: "Charlotte"
        string_val: "North Carolina"
        string_val: "N.C. Central"
        string_val: "LIU Brooklyn"
        string_val: "Southern Miss."
        string_val: "Southern Miss."
        string_val: "Louisiana"
        string_val: "Tennessee"
        string_val: "Oklahoma"
        string_val: "Georgia Tech"
        string_val: "Washington"
        string_val: "NC State"
        string_val: "Austin Peay"
        string_val: "West Virginia"
        string_val: "New Mexico"
        string_val: "UC Irvine"
        string_val: "Boise St."
        string_val: "UNI"
        string_val: "Massachusetts"
        string_val: "Texas"
        string_val: "Texas"
        string_val: "Duke"
        string_val: "Iona"
        string_val: "Texas A&M"
        string_val: "George Washington"
        string_val: "Lafayette"
        string_val: "Illinois"
        string_val: "Pacific"
        string_val: "Coppin St."
        string_val: "Virginia"
        string_val: "Harvard"
        string_val: "Virginia"
        string_val: "Oklahoma"
        string_val: "Louisville"
        string_val: "Marquette"
        string_val: "Princeton"
        string_val: "Eastern Mich."
        string_val: "Delaware"
        string_val: "Georgia"
        string_val: "West Virginia"
        string_val: "Villanova"
        string_val: "UTSA"
        string_val: "George Mason"
        string_val: "Gonzaga"
        string_val: "Loyola Maryland"
        string_val: "Cincinnati"
        string_val: "Syracuse"
        string_val: "Pittsburgh"
        string_val: "UCLA"
        string_val: "Texas"
        string_val: "Miami (FL)"
        string_val: "Northeastern"
        string_val: "Stanford"
        string_val: "Alcorn"
        string_val: "Georgia"
        string_val: "Texas Tech"
        string_val: "Texas Tech"
        string_val: "Temple"
        string_val: "Minnesota"
        string_val: "Notre Dame"
        string_val: "Old Dominion"
        string_val: "Brown"
        string_val: "Indiana St."
        string_val: "Texas"
        string_val: "N.C. A&T"
        string_val: "DePaul"
        string_val: "Providence"
        string_val: "Montana"
        string_val: "Kansas"
        string_val: "Manhattan"
        string_val: "Oklahoma St."
        string_val: "Oklahoma"
        string_val: "UNC Asheville"
        string_val: "Marquette"
        string_val: "Kansas St."
        string_val: "Florida"
        string_val: "Ga. Southern"
        string_val: "Auburn"
        string_val: "Indiana"
        string_val: "Princeton"
        string_val: "North Carolina"
        string_val: "California"
        string_val: "Western Ky."
        string_val: "Wisconsin"
        string_val: "Marshall"
        string_val: "Drexel"
        string_val: "Virginia Tech"
        string_val: "Purdue"
        string_val: "Georgetown"
        string_val: "Purdue"
        string_val: "Cincinnati"
        string_val: "Richmond"
        string_val: "NC State"
        string_val: "Oklahoma St."
        string_val: "Lafayette"
        string_val: "Lehigh"
        string_val: "Richmond"
        string_val: "Kent St."
        string_val: "Wisconsin"
        string_val: "Minnesota"
        string_val: "New Mexico St."
        string_val: "Penn"
        string_val: "West Virginia"
        string_val: "Princeton"
        string_val: "NC State"
        string_val: "Coppin St."
        string_val: "North Carolina"
        string_val: "Gonzaga"
        string_val: "Northern Ill."
        string_val: "North Carolina"
        string_val: "UCLA"
        string_val: "Wichita St."
        string_val: "Murray St."
        string_val: "Charlotte"
        string_val: "California"
        string_val: "Penn"
        string_val: "Marquette"
        string_val: "Notre Dame"
        string_val: "Arkansas"
        string_val: "Eastern Mich."
        string_val: "Colorado"
        string_val: "Liberty"
        string_val: "Eastern Ky."
        string_val: "Navy"
        string_val: "Northeastern"
        string_val: "Michigan"
        string_val: "Michigan St."
        string_val: "Rhode Island"
        string_val: "Louisville"
        string_val: "Kansas"
        string_val: "LIU Brooklyn"
        string_val: "Villanova"
        string_val: "Providence"
        string_val: "Washington"
        string_val: "Fairfield"
        string_val: "Southern California"
        string_val: "UConn"
        string_val: "Mt. St. Mary\'s"
        string_val: "New Orleans"
        string_val: "East Carolina"
        string_val: "Arkansas"
        string_val: "Louisville"
        string_val: "Michigan"
        string_val: "Temple"
        string_val: "Cincinnati"
        string_val: "Washington St."
        string_val: "Michigan St."
        string_val: "Air Force"
        string_val: "Wyoming"
        string_val: "Montana"
        string_val: "Old Dominion"
        string_val: "Kansas St."
        string_val: "Purdue"
        string_val: "Syracuse"
        string_val: "Missouri"
        string_val: "Arkansas"
        string_val: "Oklahoma St."
        string_val: "Boston College"
        string_val: "Kentucky"
        string_val: "Texas"
        string_val: "Ohio St."
        string_val: "Belmont"
        string_val: "Coastal Caro."
        string_val: "Massachusetts"
        string_val: "Manhattan"
        string_val: "Memphis"
        string_val: "Harvard"
        string_val: "Washington St."
        string_val: "George Washington"
        string_val: "Wofford"
        string_val: "Montana"
        string_val: "Vanderbilt"
        string_val: "Florida St."
        string_val: "St. John\'s (NY)"
        string_val: "West Virginia"
        string_val: "Winthrop"
        string_val: "Oral Roberts"
        string_val: "Notre Dame"
        string_val: "Clemson"
        string_val: "Creighton"
        string_val: "Morgan St."
        string_val: "Missouri"
        string_val: "Washington"
        string_val: "Northwestern St."
        string_val: "Wake Forest"
        string_val: "Texas Tech"
        string_val: "Southern Ill."
        string_val: "Kentucky"
        string_val: "Tennessee"
        string_val: "Wisconsin"
        string_val: "Portland St."
        string_val: "Louisville"
        string_val: "Mississippi St."
        string_val: "Texas"
        string_val: "Ill.-Chicago"
        string_val: "UAB"
        string_val: "La Salle"
        string_val: "BYU"
        string_val: "Indiana"
        string_val: "Saint Joseph\'s"
        string_val: "Indiana"
        string_val: "Kentucky"
        string_val: "Florida"
        string_val: "Villanova"
        string_val: "George Washington"
        string_val: "Michigan St."
        string_val: "Hampton"
        string_val: "California"
        string_val: "Fairleigh Dickinson"
        string_val: "Clemson"
        string_val: "Washington"
        string_val: "Iowa St."
        string_val: "Southern Ill."
        string_val: "Indiana"
        string_val: "Saint Joseph\'s"
        string_val: "Rider"
        string_val: "NC State"
        string_val: "Boston U."
        string_val: "South Carolina"
        string_val: "South Carolina St."
        string_val: "Tulsa"
        string_val: "Florida A&M"
        string_val: "Georgetown"
        string_val: "Boston U."
        string_val: "Missouri"
        string_val: "Michigan St."
        string_val: "St. John\'s (NY)"
        string_val: "Maryland"
        string_val: "Missouri St."
        string_val: "Rhode Island"
        string_val: "Campbell"
        string_val: "UCLA"
        string_val: "Southern U."
        string_val: "Minnesota"
        string_val: "Arkansas"
        string_val: "Navy"
        string_val: "Southern California"
        string_val: "UCLA"
        string_val: "Lamar University"
        string_val: "George Washington"
        string_val: "Monmouth"
        string_val: "Illinois"
        string_val: "Mississippi Val."
        string_val: "West Virginia"
        string_val: "Xavier"
        string_val: "Richmond"
        string_val: "Old Dominion"
        string_val: "Seton Hall"
        string_val: "Michigan"
        string_val: "Kansas"
        string_val: "Arizona"
        string_val: "Temple"
        string_val: "SMU"
        string_val: "Kansas"
        string_val: "UConn"
        string_val: "Binghamton"
        string_val: "Kentucky"
        string_val: "DePaul"
        string_val: "Indiana"
        string_val: "Iowa"
        string_val: "Seton Hall"
        string_val: "Texas"
        string_val: "Temple"
        string_val: "Alabama St."
        string_val: "West Virginia"
        string_val: "Winthrop"
        string_val: "Texas Tech"
        string_val: "Princeton"
        string_val: "Lehigh"
        string_val: "NC State"
        string_val: "Georgia Tech"
        string_val: "LSU"
        string_val: "North Carolina"
        string_val: "Temple"
        string_val: "Boston College"
        string_val: "Mississippi Val."
        string_val: "St. John\'s (NY)"
        string_val: "Notre Dame"
        string_val: "Loyola Chicago"
        string_val: "Belmont"
        string_val: "New Mexico"
        string_val: "Vanderbilt"
        string_val: "Arizona"
        string_val: "Missouri"
        string_val: "Temple"
        string_val: "Oregon"
        string_val: "La Salle"
        string_val: "Cincinnati"
        string_val: "Creighton"
        string_val: "Texas"
        string_val: "Rutgers"
        string_val: "Richmond"
        string_val: "SMU"
        string_val: "Iona"
        string_val: "Xavier"
        string_val: "Miami (FL)"
        string_val: "Davidson"
        string_val: "Butler"
        string_val: "Syracuse"
        string_val: "Monmouth"
        string_val: "Georgetown"
        string_val: "Penn"
        string_val: "Saint Peter\'s"
        string_val: "Tulsa"
        string_val: "UCF"
        string_val: "Stanford"
        string_val: "Fordham"
        string_val: "Stanford"
        string_val: "Syracuse"
        string_val: "Arkansas"
        string_val: "Navy"
        string_val: "Siena"
        string_val: "Kansas St."
        string_val: "Clemson"
        string_val: "West Virginia"
        string_val: "Georgia"
        string_val: "Tennessee"
        string_val: "Wisconsin"
        string_val: "Monmouth"
        string_val: "Syracuse"
        string_val: "Cleveland St."
        string_val: "Tulsa"
        string_val: "Villanova"
        string_val: "California"
        string_val: "Southern Miss."
        string_val: "South Carolina"
        string_val: "Michigan St."
        string_val: "LSU"
        string_val: "Iowa"
        string_val: "Nebraska"
        string_val: "Iowa"
        string_val: "Albany (NY)"
        string_val: "Saint Joseph\'s"
        string_val: "Butler"
        string_val: "Dayton"
        string_val: "California"
        string_val: "Northeastern"
        string_val: "South Carolina St."
        string_val: "Drexel"
        string_val: "Pepperdine"
        string_val: "Wake Forest"
        string_val: "New Mexico"
        string_val: "Massachusetts"
        string_val: "Alabama"
        string_val: "Tennessee"
        string_val: "Seton Hall"
        string_val: "Hofstra"
        string_val: "Penn"
        string_val: "NC State"
        string_val: "Nebraska"
        string_val: "Indiana"
        string_val: "Xavier"
        string_val: "ETSU"
        string_val: "Oklahoma St."
        string_val: "UNLV"
        string_val: "South Carolina"
        string_val: "Georgia Tech"
        string_val: "Indiana"
        string_val: "Syracuse"
        string_val: "Charlotte"
        string_val: "Bradley"
        string_val: "American"
        string_val: "Butler"
        string_val: "Delaware"
        string_val: "Old Dominion"
        string_val: "Illinois"
        string_val: "Col. of Charleston"
        string_val: "Marquette"
        string_val: "Syracuse"
        string_val: "UAB"
        string_val: "Kansas"
        string_val: "Hofstra"
        string_val: "VCU"
        string_val: "Utah St."
        string_val: "Alabama St."
        string_val: "LIU Brooklyn"
        string_val: "Milwaukee"
        string_val: "UCLA"
        string_val: "Princeton"
        string_val: "Lafayette"
        string_val: "American"
        string_val: "Duke"
        string_val: "Pittsburgh"
        string_val: "N.C. A&T"
        string_val: "ETSU"
        string_val: "Chattanooga"
        string_val: "Saint Louis"
        string_val: "Texas"
        string_val: "Georgia"
        string_val: "Marquette"
        string_val: "Pacific"
        string_val: "Xavier"
        string_val: "Montana"
        string_val: "New Mexico"
        string_val: "Richmond"
        string_val: "Penn"
        string_val: "North Carolina"
        string_val: "Purdue"
        string_val: "New Orleans"
        string_val: "Indiana"
        string_val: "BYU"
        string_val: "Oregon"
        string_val: "Villanova"
        string_val: "Stanford"
        string_val: "Davidson"
        string_val: "Detroit Mercy"
        string_val: "NC State"
        string_val: "Jackson St."
        string_val: "Memphis"
        string_val: "Houston"
        string_val: "Pittsburgh"
        string_val: "UNLV"
        string_val: "Wake Forest"
        string_val: "Xavier"
        string_val: "Oklahoma"
        string_val: "Purdue"
        string_val: "Arkansas"
        string_val: "Kansas St."
        string_val: "N.C. A&T"
        string_val: "Ohio St."
        string_val: "Duke"
        string_val: "Chattanooga"
        string_val: "Indiana"
        string_val: "Eastern Ky."
        string_val: "Illinois"
        string_val: "North Carolina"
        string_val: "Missouri St."
        string_val: "Holy Cross"
        string_val: "Murray St."
        string_val: "California"
        string_val: "North Carolina"
        string_val: "North Carolina"
        string_val: "NC State"
        string_val: "Western Ky."
        string_val: "Evansville"
        string_val: "Temple"
        string_val: "Michigan St."
        string_val: "Ball St."
        string_val: "Portland St."
        string_val: "Vanderbilt"
        string_val: "George Mason"
        string_val: "Gonzaga"
        string_val: "Georgia St."
        string_val: "Illinois"
        string_val: "UTEP"
        string_val: "Xavier"
        string_val: "Stanford"
        string_val: "Texas"
        string_val: "Utah St."
        string_val: "UNCW"
        string_val: "Georgetown"
        string_val: "Syracuse"
        string_val: "Washington"
        string_val: "UNLV"
        string_val: "Massachusetts"
        string_val: "Utah"
        string_val: "Wake Forest"
        string_val: "Tennessee St."
        string_val: "Miami (OH)"
        string_val: "San Jose St."
        string_val: "Kansas"
…
            string_val: "Oregon"
            string_val: "Ohio St."
            string_val: "Ohio St."
            string_val: "Ohio St."
            string_val: "Ohio St."
            string_val: "Ohio St."
            string_val: "Ohio St."
            string_val: "Ohio St."
            string_val: "Purdue"
            string_val: "Purdue"
            string_val: "Purdue"
            string_val: "Purdue"
            string_val: "Purdue"
            string_val: "Purdue"
            string_val: "Purdue"
            string_val: "Purdue"
            string_val: "Purdue"
            string_val: "Purdue"
            string_val: "Purdue"
            string_val: "Robert Morris"
            string_val: "SFA"
            string_val: "Siena"
            string_val: "Southern Ill."
            string_val: "St. John\'s (NY)"
            string_val: "St. John\'s (NY)"
            string_val: "St. John\'s (NY)"
            string_val: "St. John\'s (NY)"
            string_val: "Saint Mary\'s (CA)"
            string_val: "Saint Mary\'s (CA)"
            string_val: "Syracuse"
            string_val: "Syracuse"
            string_val: "Syracuse"
            string_val: "Syracuse"
            string_val: "Syracuse"
            string_val: "Temple"
            string_val: "Temple"
            string_val: "Texas"
            string_val: "Texas"
            string_val: "Texas"
            string_val: "Texas"
            string_val: "Texas"
            string_val: "Texas"
            string_val: "Texas"
            string_val: "Texas"
            string_val: "Texas"
            string_val: "Texas"
            string_val: "Texas"
            string_val: "Texas"
            string_val: "UAB"
            string_val: "UAB"
            string_val: "Louisiana"
            string_val: "North Carolina"
            string_val: "North Carolina"
            string_val: "North Carolina"
            string_val: "North Carolina"
            string_val: "North Carolina"
            string_val: "North Carolina"
            string_val: "North Carolina"
            string_val: "North Carolina"
            string_val: "North Carolina"
            string_val: "North Carolina"
            string_val: "North Carolina"
            string_val: "North Carolina"
            string_val: "North Carolina"
            string_val: "North Carolina"
            string_val: "North Carolina"
            string_val: "North Carolina"
            string_val: "New Orleans"
            string_val: "South Fla."
            string_val: "South Fla."
            string_val: "Virginia"
            string_val: "Vermont"
            string_val: "Vanderbilt"
            string_val: "Vanderbilt"
            string_val: "Vanderbilt"
            string_val: "Vanderbilt"
            string_val: "VCU"
            string_val: "VCU"
            string_val: "Wisconsin"
            string_val: "Wisconsin"
            string_val: "Western Ky."
            string_val: "West Virginia"
            string_val: "West Virginia"
            string_val: "Xavier"
            string_val: "Xavier"
            string_val: "Xavier"
            string_val: "Xavier"
            string_val: "Xavier"
            string_val: "Albany (NY)"
            string_val: "Arizona"
            string_val: "Arizona"
            string_val: "Arizona"
            string_val: "Arizona"
            string_val: "Arizona"
            string_val: "Arizona"
            string_val: "Arizona"
            string_val: "Arizona"
            string_val: "Arizona"
            string_val: "Arizona"
            string_val: "Arizona"
            string_val: "Arizona"
            string_val: "Arizona"
            string_val: "Arizona"
            string_val: "Arizona"
            string_val: "Arizona"
            string_val: "Arizona"
            string_val: "Ark.-Pine Bluff"
            string_val: "Bradley"
            string_val: "Bradley"
            string_val: "Bucknell"
            string_val: "Charlotte"
            string_val: "Chattanooga"
            string_val: "Chattanooga"
            string_val: "Clemson"
            string_val: "Col. of Charleston"
            string_val: "UConn"
            string_val: "UConn"
            string_val: "UConn"
            string_val: "UConn"
            string_val: "UConn"
            string_val: "UConn"
            string_val: "UConn"
            string_val: "UConn"
            string_val: "UConn"
            string_val: "UConn"
            string_val: "UConn"
            string_val: "UConn"
            string_val: "UConn"
            string_val: "UConn"
            string_val: "UConn"
            string_val: "UConn"
            string_val: "UConn"
            string_val: "UConn"
            string_val: "Creighton"
            string_val: "Creighton"
            string_val: "Duke"
            string_val: "Duke"
            string_val: "Duke"
            string_val: "Duke"
            string_val: "Duke"
            string_val: "Duke"
            string_val: "Duke"
            string_val: "Duke"
            string_val: "Duke"
            string_val: "Duke"
            string_val: "Duke"
            string_val: "Duke"
            string_val: "Duke"
            string_val: "Duke"
            string_val: "Duke"
            string_val: "Duke"
            string_val: "Duke"
            string_val: "Duke"
            string_val: "Duke"
            string_val: "Duke"
            string_val: "Duke"
            string_val: "Evansville"
            string_val: "FGCU"
            string_val: "FGCU"
            string_val: "Georgia St."
            string_val: "Gonzaga"
            string_val: "Gonzaga"
            string_val: "Gonzaga"
            string_val: "Gonzaga"
            string_val: "Gonzaga"
            string_val: "Gonzaga"
            string_val: "Gonzaga"
            string_val: "Georgetown"
            string_val: "Georgetown"
            string_val: "Georgetown"
            string_val: "Georgetown"
            string_val: "Georgetown"
            string_val: "Georgetown"
            string_val: "Georgetown"
            string_val: "Georgetown"
            string_val: "Georgetown"
            string_val: "Georgetown"
            string_val: "Georgetown"
            string_val: "Seton Hall"
            string_val: "Seton Hall"
            string_val: "Seton Hall"
            string_val: "Seton Hall"
            string_val: "Seton Hall"
            string_val: "Hampton"
            string_val: "Illinois St."
            string_val: "Iowa"
            string_val: "Saint Joseph\'s"
            string_val: "Kent St."
            string_val: "Miami (OH)"
            string_val: "Miami (OH)"
            string_val: "Marquette"
            string_val: "Marquette"
            string_val: "Michigan"
            string_val: "Michigan"
            string_val: "Michigan"
            string_val: "Michigan"
            string_val: "Michigan"
            string_val: "Michigan"
            string_val: "Michigan"
            string_val: "Michigan"
            string_val: "Milwaukee"
            string_val: "Milwaukee"
            string_val: "Minnesota"
            string_val: "Ole Miss"
            string_val: "Missouri"
            string_val: "Missouri St."
            string_val: "Mississippi St."
            string_val: "Mississippi St."
            string_val: "Mississippi St."
            string_val: "Murray St."
            string_val: "NC State"
            string_val: "NC State"
            string_val: "NC State"
            string_val: "NC State"
            string_val: "NC State"
            string_val: "NC State"
            string_val: "NC State"
            string_val: "NC State"
            string_val: "NC State"
            string_val: "New Mexico St."
            string_val: "New Mexico St."
            string_val: "Ohio"
            string_val: "Ohio"
            string_val: "Oklahoma"
            string_val: "Oklahoma"
            string_val: "Oklahoma"
            string_val: "Oklahoma"
            string_val: "Oklahoma"
            string_val: "Oklahoma"
            string_val: "Oklahoma St."
            string_val: "Oklahoma St."
            string_val: "Oklahoma St."
            string_val: "Austin Peay"
            string_val: "Pittsburgh"
            string_val: "Pittsburgh"
            string_val: "Pittsburgh"
            string_val: "Pittsburgh"
            string_val: "Providence"
            string_val: "Providence"
            string_val: "Providence"
            string_val: "Providence"
            string_val: "Providence"
            string_val: "Providence"
            string_val: "Providence"
            string_val: "San Diego St."
            string_val: "San Diego St."
            string_val: "San Diego St."
            string_val: "San Diego St."
            string_val: "Stanford"
            string_val: "Stanford"
            string_val: "Stanford"
            string_val: "Stanford"
            string_val: "Stanford"
            string_val: "Stanford"
            string_val: "Stanford"
            string_val: "Stanford"
            string_val: "Stanford"
            string_val: "Tennessee"
            string_val: "Tennessee"
            string_val: "Tennessee"
            string_val: "Tennessee"
            string_val: "Tulsa"
            string_val: "Tulsa"
            string_val: "Tulsa"
            string_val: "Texas A&M"
            string_val: "Texas A&M"
            string_val: "Texas A&M"
            string_val: "Little Rock"
            string_val: "UCLA"
            string_val: "UCLA"
            string_val: "UCLA"
            string_val: "UCLA"
            string_val: "UCLA"
            string_val: "UCLA"
            string_val: "UCLA"
            string_val: "UCLA"
            string_val: "UCLA"
            string_val: "UCLA"
            string_val: "UCLA"
            string_val: "UCLA"
            string_val: "UCLA"
            string_val: "UCLA"
            string_val: "UCLA"
            string_val: "UCLA"
            string_val: "UCLA"
            string_val: "UCLA"
            string_val: "UNC Asheville"
            string_val: "UNLV"
            string_val: "UNLV"
            string_val: "UNLV"
            string_val: "UNLV"
            string_val: "UNLV"
            string_val: "Utah"
            string_val: "Utah"
            string_val: "Utah"
            string_val: "Utah"
            string_val: "Utah"
            string_val: "Utah"
            string_val: "Utah"
            string_val: "Utah"
            string_val: "Utah"
            string_val: "Utah"
            string_val: "Utah"
            string_val: "UTEP"
            string_val: "UTEP"
            string_val: "Villanova"
            string_val: "Villanova"
            string_val: "Villanova"
            string_val: "Villanova"
            string_val: "Wake Forest"
            string_val: "Wake Forest"
            string_val: "Wake Forest"
            string_val: "Wake Forest"
            string_val: "Wake Forest"
            string_val: "Wake Forest"
            string_val: "Boston College"
            string_val: "Boston College"
            string_val: "Boston College"
            string_val: "Boston College"
            string_val: "Boston College"
            string_val: "Cal Poly"
            string_val: "Georgia Tech"
            string_val: "Georgia Tech"
            string_val: "Georgia Tech"
            string_val: "Georgia Tech"
            string_val: "Georgia Tech"
            string_val: "Georgia Tech"
            string_val: "Georgia Tech"
            string_val: "Georgia Tech"
            string_val: "Georgia Tech"
            string_val: "Georgia Tech"
            string_val: "Georgia Tech"
            string_val: "Georgia Tech"
            string_val: "Kansas"
            string_val: "Kansas"
            string_val: "Kansas"
            string_val: "Kansas"
            string_val: "Kansas"
            string_val: "Kansas"
            string_val: "Kansas"
            string_val: "Kansas"
            string_val: "Kansas"
            string_val: "Kansas"
            string_val: "Louisiana Tech"
            string_val: "Louisiana Tech"
            string_val: "Maryland"
            string_val: "Maryland"
            string_val: "Maryland"
            string_val: "Maryland"
            string_val: "Maryland"
            string_val: "Maryland"
            string_val: "Maryland"
            string_val: "Maryland"
            string_val: "Maryland"
            string_val: "Notre Dame"
            string_val: "Notre Dame"
            string_val: "Notre Dame"
            string_val: "Notre Dame"
            string_val: "Notre Dame"
            string_val: "Kentucky"
            string_val: "Kentucky"
            string_val: "Kentucky"
            string_val: "Kentucky"
            string_val: "Kentucky"
            string_val: "Kentucky"
            string_val: "Kentucky"
            string_val: "Kentucky"
            string_val: "Kentucky"
            string_val: "Kentucky"
            string_val: "Kentucky"
            string_val: "Kentucky"
            string_val: "Kentucky"
            string_val: "Kentucky"
            string_val: "Kentucky"
            string_val: "Kentucky"
            string_val: "Kentucky"
            string_val: "Kentucky"
            string_val: "Kentucky"
            string_val: "Kentucky"
            string_val: "Kentucky"
            string_val: "Kentucky"
            string_val: "Kentucky"
            string_val: "Kentucky"
            string_val: "Kentucky"
            string_val: "Kentucky"
            string_val: "Kentucky"
            string_val: "Kentucky"
            string_val: "Kentucky"
            string_val: "Kentucky"
            string_val: "Kentucky"
            string_val: "Alabama"
            string_val: "Alabama"
            string_val: "Alabama"
            string_val: "Arkansas"
            string_val: "Arkansas"
            string_val: "Arkansas"
            string_val: "Arkansas"
            string_val: "Arkansas"
            string_val: "Arkansas"
            string_val: "Arkansas"
            string_val: "Arkansas"
            string_val: "Arkansas"
            string_val: "Arkansas"
            string_val: "Arkansas"
            string_val: "Arkansas"
            string_val: "Arkansas"
            string_val: "Auburn"
            string_val: "Auburn"
            string_val: "Auburn"
            string_val: "Auburn"
            string_val: "Auburn"
            string_val: "Baylor"
            string_val: "Baylor"
            string_val: "Baylor"
            string_val: "Butler"
            string_val: "Butler"
            string_val: "Butler"
            string_val: "Butler"
            string_val: "Butler"
            string_val: "Butler"
            string_val: "Butler"
            string_val: "Butler"
            string_val: "Butler"
            string_val: "BYU"
            string_val: "BYU"
            string_val: "BYU"
            string_val: "California"
            string_val: "Cincinnati"
            string_val: "Cincinnati"
            string_val: "Cincinnati"
            string_val: "Cincinnati"
            string_val: "Cincinnati"
            string_val: "Cincinnati"
            string_val: "Cincinnati"
            string_val: "Cincinnati"
            string_val: "Cincinnati"
            string_val: "Cincinnati"
            string_val: "Colorado St."
            string_val: "Colorado St."
            string_val: "Dayton"
            string_val: "DePaul"
            string_val: "DePaul"
            string_val: "Detroit Mercy"
            string_val: "Detroit Mercy"
            string_val: "Eastern Mich."
            string_val: "Florida"
            string_val: "Florida"
            string_val: "Florida"
            string_val: "Florida"
            string_val: "Florida"
            string_val: "Florida"
            string_val: "Florida"
            string_val: "Florida"
            string_val: "Florida"
            string_val: "Florida"
            string_val: "Florida"
            string_val: "Florida"
            string_val: "Florida"
            string_val: "Florida"
            string_val: "Florida"
            string_val: "Florida St."
            string_val: "Florida St."
            string_val: "Florida St."
            string_val: "Florida St."
            string_val: "Illinois"
            string_val: "Illinois"
            string_val: "Illinois"
            string_val: "Illinois"
            string_val: "Illinois"
            string_val: "Illinois"
            string_val: "Illinois"
            string_val: "Illinois"
            string_val: "Illinois"
            string_val: "Indiana"
            string_val: "Indiana"
            string_val: "Indiana"
            string_val: "Indiana"
            string_val: "Indiana"
            string_val: "Indiana"
            string_val: "Indiana"
            string_val: "Indiana"
            string_val: "Indiana"
            string_val: "Indiana"
            string_val: "Indiana"
            string_val: "Indiana"
            string_val: "Indiana"
            string_val: "Indiana"
            string_val: "Indiana"
            string_val: "Iowa St."
            string_val: "Iowa St."
            string_val: "Iowa St."
            string_val: "Iowa St."
            string_val: "Iowa St."
            string_val: "Iowa St."
            string_val: "Kansas St."
            string_val: "Lehigh"
            string_val: "Louisville"
            string_val: "Louisville"
            string_val: "Louisville"
            string_val: "Louisville"
            string_val: "Louisville"
            string_val: "Louisville"
            string_val: "Louisville"
            string_val: "Louisville"
            string_val: "Louisville"
            string_val: "Louisville"
            string_val: "Louisville"
            string_val: "Louisville"
            string_val: "Louisville"
            string_val: "Louisville"
            string_val: "Louisville"
            string_val: "LSU"
            string_val: "LSU"
            string_val: "LSU"
            string_val: "LSU"
            string_val: "LSU"
            string_val: "LSU"
            string_val: "LSU"
            string_val: "LSU"
            string_val: "Manhattan"
            string_val: "Memphis"
            string_val: "Memphis"
            string_val: "Memphis"
            string_val: "Memphis"
            string_val: "Memphis"
            string_val: "Memphis"
            string_val: "Memphis"
            string_val: "Memphis"
            string_val: "Memphis"
            string_val: "Memphis"
            string_val: "Memphis"
            string_val: "Memphis"
            string_val: "Memphis"
            string_val: "Memphis"
            string_val: "Memphis"
            string_val: "Memphis"
            string_val: "Memphis"
            string_val: "Mercer"
            string_val: "Miami (FL)"
            string_val: "Michigan St."
            string_val: "Michigan St."
            string_val: "Michigan St."
            string_val: "Michigan St."
            string_val: "Michigan St."
            string_val: "Michigan St."
            string_val: "Michigan St."
            string_val: "Michigan St."
            string_val: "Michigan St."
            string_val: "Michigan St."
            string_val: "Michigan St."
            string_val: "Michigan St."
            string_val: "Michigan St."
            string_val: "Michigan St."
            string_val: "Michigan St."
            string_val: "Michigan St."
            string_val: "Michigan St."
            string_val: "Michigan St."
            string_val: "Michigan St."
            string_val: "Michigan St."
            string_val: "Michigan St."
            string_val: "Michigan St."
            string_val: "Michigan St."
            string_val: "Michigan St."
            string_val: "Michigan St."
            string_val: "Michigan St."
            string_val: "Oregon"
            string_val: "Oregon"
            string_val: "Oregon"
            string_val: "Oregon"
            string_val: "Oregon"
            string_val: "Ohio St."
            string_val: "Ohio St."
            string_val: "Ohio St."
            string_val: "Ohio St."
            string_val: "Ohio St."
            string_val: "Ohio St."
            string_val: "Ohio St."
            string_val: "Ohio St."
            string_val: "Ohio St."
            string_val: "Ohio St."
            string_val: "Purdue"
            string_val: "Purdue"
            string_val: "Purdue"
            string_val: "Purdue"
            string_val: "Siena"
            string_val: "St. John\'s (NY)"
            string_val: "St. John\'s (NY)"
            string_val: "St. John\'s (NY)"
            string_val: "St. John\'s (NY)"
            string_val: "St. John\'s (NY)"
            string_val: "St. John\'s (NY)"
            string_val: "St. John\'s (NY)"
            string_val: "Saint Louis"
            string_val: "Saint Louis"
            string_val: "Saint Mary\'s (CA)"
            string_val: "Syracuse"
            string_val: "Syracuse"
            string_val: "Syracuse"
            string_val: "Syracuse"
            string_val: "Syracuse"
            string_val: "Syracuse"
            string_val: "Syracuse"
            string_val: "Syracuse"
            string_val: "Syracuse"
            string_val: "Temple"
            string_val: "Temple"
            string_val: "Temple"
            string_val: "Texas"
            string_val: "Texas"
            string_val: "Texas"
            string_val: "Texas"
            string_val: "Texas"
            string_val: "Texas"
            string_val: "Texas"
            string_val: "Texas Tech"
            string_val: "UAB"
            string_val: "UNI"
            string_val: "UNI"
            string_val: "UNI"
            string_val: "Rhode Island"
            string_val: "Rhode Island"
            string_val: "Rhode Island"
            string_val: "Southern California"
            string_val: "Southern California"
            string_val: "Virginia"
            string_val: "Virginia"
            string_val: "Virginia"
            string_val: "Virginia"
            string_val: "Vermont"
            string_val: "VCU"
            string_val: "Winthrop"
            string_val: "Wisconsin"
            string_val: "Wisconsin"
            string_val: "Wisconsin"
            string_val: "Wisconsin"
            string_val: "Wisconsin"
            string_val: "Wisconsin"
            string_val: "Western Ky."
            string_val: "Western Ky."
            string_val: "Western Ky."
            string_val: "Western Ky."
            string_val: "Western Ky."
            string_val: "Western Mich."
            string_val: "West Virginia"
            string_val: "West Virginia"
            string_val: "Xavier"
            string_val: "Xavier"
            string_val: "Xavier"
            string_val: "Xavier"
            string_val: "Xavier"
            string_val: "Arizona"
            string_val: "Arizona"
            string_val: "Arizona"
            string_val: "Arizona"
            string_val: "Arizona"
            string_val: "Arizona"
            string_val: "Arizona"
            string_val: "Arizona"
            string_val: "Ball St."
            string_val: "Charlotte"
            string_val: "Clemson"
            string_val: "Clemson"
            string_val: "Cleveland St."
            string_val: "Colorado"
            string_val: "UConn"
            string_val: "UConn"
            string_val: "UConn"
            string_val: "UConn"
            string_val: "Creighton"
            string_val: "Creighton"
            string_val: "Duke"
            string_val: "Duke"
            string_val: "Duke"
            string_val: "Duke"
            string_val: "Duke"
            string_val: "Duke"
            string_val: "Duke"
            string_val: "Duke"
            string_val: "Duke"
            string_val: "Duke"
            string_val: "Duke"
            string_val: "Duke"
            string_val: "Duke"
            string_val: "Duke"
            string_val: "Duke"
            string_val: "Duke"
            string_val: "Gonzaga"
            string_val: "Georgetown"
            string_val: "Georgetown"
            string_val: "Georgetown"
            string_val: "Seton Hall"
            string_val: "Hampton"
            string_val: "Illinois St."
            string_val: "Iowa"
            string_val: "Iowa"
            string_val: "Saint Joseph\'s"
            string_val: "Saint Joseph\'s"
            string_val: "Saint Joseph\'s"
            string_val: "Kent St."
            string_val: "Kent St."
            string_val: "Kent St."
            string_val: "Miami (OH)"
            string_val: "Marquette"
            string_val: "Marquette"
            string_val: "Marquette"
            string_val: "Marquette"
            string_val: "Marquette"
            string_val: "Massachusetts"
            string_val: "Michigan"
            string_val: "Michigan"
            string_val: "Michigan"
            string_val: "Michigan"
            string_val: "Michigan"
            string_val: "Michigan"
            string_val: "Milwaukee"
            string_val: "Minnesota"
            string_val: "Minnesota"
            string_val: "Minnesota"
            string_val: "Minnesota"
            string_val: "Minnesota"
            string_val: "Minnesota"
            string_val: "Minnesota"
            string_val: "Ole Miss"
            string_val: "Ole Miss"
            string_val: "Missouri"
            string_val: "Missouri"
            string_val: "Missouri"
            string_val: "Monmouth"
            string_val: "Montana"
            string_val: "Morehead St."
            string_val: "Mississippi St."
            string_val: "Mississippi St."
            string_val: "Mississippi St."
            string_val: "Mississippi St."
            string_val: "Mississippi St."
            string_val: "Mississippi St."
            string_val: "N.C. A&T"
            string_val: "NC State"
            string_val: "Northwestern St."
            string_val: "Ohio"
            string_val: "Oklahoma"
            string_val: "Oklahoma"
            string_val: "Oklahoma"
            string_val: "Oklahoma"
            string_val: "Oklahoma"
            string_val: "Oklahoma"
            string_val: "Oklahoma"
            string_val: "Oklahoma"
            string_val: "Oklahoma"
            string_val: "Oklahoma St."
            string_val: "Oklahoma St."
            string_val: "Oklahoma St."
            string_val: "Oklahoma St."
            string_val: "Oklahoma St."
            string_val: "Oklahoma St."
            string_val: "Pittsburgh"
            string_val: "Pittsburgh"
            string_val: "Pittsburgh"
            string_val: "Pittsburgh"
            string_val: "Pittsburgh"
            string_val: "Pittsburgh"
            string_val: "Pittsburgh"
            string_val: "Pittsburgh"
            string_val: "Princeton"
            string_val: "Stanford"
            string_val: "Stanford"
            string_val: "Stanford"
            string_val: "Stanford"
            string_val: "Stanford"
            string_val: "Stanford"
            string_val: "Tennessee"
            string_val: "Tennessee"
            string_val: "Tennessee"
            string_val: "Tennessee"
            string_val: "Tennessee"
            string_val: "Tennessee"
            string_val: "Tulsa"
            string_val: "Tulsa"
            string_val: "Tulsa"
            string_val: "Tulsa"
            string_val: "Tulane"
            string_val: "UCLA"
            string_val: "UCLA"
            string_val: "UCLA"
            string_val: "UCLA"
            string_val: "UCLA"
            string_val: "UCLA"
            string_val: "UC Santa Barbara"
            string_val: "UNC Asheville"
            string_val: "UNCW"
            string_val: "UNLV"
            string_val: "UNLV"
            string_val: "Utah"
            string_val: "Utah"
            string_val: "Utah"
            string_val: "Utah"
            string_val: "Utah"
            string_val: "UTEP"
            string_val: "UTEP"
            string_val: "Valparaiso"
            string_val: "Valparaiso"
            string_val: "Villanova"
            string_val: "Villanova"
            string_val: "Villanova"
            string_val: "Villanova"
            string_val: "Villanova"
            string_val: "Villanova"
            string_val: "Villanova"
            string_val: "Wake Forest"
            string_val: "Wake Forest"
            string_val: "Wake Forest"
            string_val: "Wake Forest"
            string_val: "Wichita St."
            string_val: "Wichita St."
            string_val: "Wichita St."
            string_val: "Boston College"
            string_val: "Boston College"
            string_val: "Green Bay"
            string_val: "Georgia Tech"
            string_val: "Georgia Tech"
            string_val: "Georgia Tech"
            string_val: "Georgia Tech"
            string_val: "Georgia Tech"
            string_val: "George Washington"
            string_val: "George Washington"
            string_val: "Kansas"
            string_val: "Kansas"
            string_val: "Kansas"
            string_val: "Kansas"
            string_val: "Kansas"
            string_val: "Kansas"
            string_val: "Kansas"
            string_val: "Kansas"
            string_val: "Kansas"
            string_val: "Kansas"
            string_val: "Kansas"
            string_val: "Kansas"
            string_val: "Kansas"
            string_val: "Kansas"
            string_val: "Kansas"
            string_val: "Kansas"
            string_val: "Kansas"
            string_val: "Kansas"
            string_val: "Louisiana Tech"
            string_val: "Maryland"
            string_val: "Maryland"
            string_val: "Maryland"
            string_val: "Maryland"
            string_val: "Notre Dame"
            string_val: "Notre Dame"
            string_val: "Notre Dame"
            string_val: "Notre Dame"
            string_val: "Kentucky"
            string_val: "Kentucky"
            string_val: "Kentucky"
            string_val: "Kentucky"
            string_val: "Kentucky"
            string_val: "Kentucky"
            string_val: "Kentucky"
            string_val: "Kentucky"
            string_val: "Kentucky"
            string_val: "Kentucky"
            string_val: "Kentucky"
            string_val: "Kentucky"
            string_val: "Kentucky"
            string_val: "Kentucky"
            string_val: "Kentucky"
            string_val: "Kentucky"
            string_val: "Kentucky"
            string_val: "Virginia Tech"
            string_val: "Alabama"
            string_val: "Alabama"
            string_val: "Alabama"
            string_val: "Arkansas"
            string_val: "Arkansas"
            string_val: "Arizona St."
            string_val: "Arizona St."
            string_val: "Arizona St."
            string_val: "Auburn"
            string_val: "Auburn"
            string_val: "Auburn"
            string_val: "Auburn"
            string_val: "Auburn"
            string_val: "Baylor"
            string_val: "Baylor"
            string_val: "Butler"
            string_val: "Butler"
            string_val: "Butler"
            string_val: "Butler"
            string_val: "Butler"
            string_val: "BYU"
            string_val: "BYU"
            string_val: "BYU"
            string_val: "Cincinnati"
            string_val: "Central Mich."
            string_val: "Florida"
            string_val: "Florida"
            string_val: "Florida"
            string_val: "Florida"
            string_val: "Florida"
            string_val: "Florida"
            string_val: "Florida"
            string_val: "Florida"
            string_val: "Florida St."
            string_val: "Florida St."
            string_val: "George Mason"
            string_val: "George Mason"
            string_val: "George Mason"
            string_val: "George Mason"
            string_val: "Illinois"
            string_val: "Illinois"
            string_val: "Illinois"
            string_val: "Illinois"
            string_val: "Indiana"
            string_val: "Iowa St."
            string_val: "Iowa St."
            string_val: "Iowa St."
            string_val: "Kansas St."
            string_val: "Kansas St."
            string_val: "Kansas St."
            string_val: "Kansas St."
            string_val: "La Salle"
            string_val: "La Salle"
            string_val: "La Salle"
            string_val: "Loyola Marymount"
            string_val: "Loyola Marymount"
            string_val: "Loyola Marymount"
            string_val: "Loyola Marymount"
            string_val: "Louisville"
            string_val: "Louisville"
            string_val: "Louisville"
            string_val: "Louisville"
            string_val: "Louisville"
            string_val: "Louisville"
            string_val: "Louisville"
            string_val: "Louisville"
            string_val: "Louisville"
            string_val: "Louisville"
            string_val: "Louisville"
            string_val: "Louisville"
            string_val: "Louisville"
            string_val: "LSU"
            string_val: "LSU"
            string_val: "Manhattan"
            string_val: "Memphis"
            string_val: "Memphis"
            string_val: "Michigan St."
            string_val: "Michigan St."
            string_val: "Michigan St."
            string_val: "Michigan St."
            string_val: "Michigan St."
            string_val: "Michigan St."
            string_val: "Michigan St."
            string_val: "Middle Tenn."
            string_val: "Nevada"
            string_val: "Nevada"
            string_val: "Oakland"
            string_val: "Oregon"
            string_val: "Oregon"
            string_val: "Ohio St."
            string_val: "Ohio St."
            string_val: "Ohio St."
            string_val: "Ohio St."
            string_val: "Ohio St."
            string_val: "Ohio St."
            string_val: "Ohio St."
            string_val: "Ohio St."
            string_val: "Ohio St."
            string_val: "Pacific"
            string_val: "Penn St."
            string_val: "Penn St."
            string_val: "Purdue"
            string_val: "Purdue"
            string_val: "Purdue"
            string_val: "Purdue"
            string_val: "Purdue"
            string_val: "Purdue"
            string_val: "Purdue"
            string_val: "Purdue"
            string_val: "Santa Clara"
            string_val: "Santa Clara"
            string_val: "Southern Ill."
            string_val: "Southern Ill."
            string_val: "St. John\'s (NY)"
            string_val: "St. John\'s (NY)"
            string_val: "Saint Louis"
            string_val: "Saint Louis"
            string_val: "Southern U."
            string_val: "Syracuse"
            string_val: "Syracuse"
            string_val: "Syracuse"
            string_val: "Syracuse"
            string_val: "Syracuse"
            string_val: "Syracuse"
            string_val: "Syracuse"
            string_val: "Syracuse"
            string_val: "Syracuse"
            string_val: "Syracuse"
            string_val: "Syracuse"
            string_val: "Temple"
            string_val: "Temple"
            string_val: "Temple"
            string_val: "Temple"
            string_val: "Temple"
            string_val: "Temple"
            string_val: "Texas"
            string_val: "UAB"
            string_val: "UAB"
            string_val: "UAB"
            string_val: "Georgia"
            string_val: "Georgia"
            string_val: "North Carolina"
            string_val: "North Carolina"
            string_val: "North Carolina"
            string_val: "North Carolina"
            string_val: "North Carolina"
            string_val: "North Carolina"
            string_val: "North Carolina"
            string_val: "North Carolina"
            string_val: "North Carolina"
            string_val: "North Carolina"
            string_val: "North Carolina"
            string_val: "North Carolina"
            string_val: "North Carolina"
            string_val: "North Carolina"
            string_val: "North Carolina"
            string_val: "North Carolina"
            string_val: "North Carolina"
            string_val: "North Carolina"
            string_val: "North Carolina"
            string_val: "North Carolina"
            string_val: "North Carolina"
            string_val: "North Carolina"
            string_val: "North Carolina"
            string_val: "North Carolina"
            string_val: "North Carolina"
            string_val: "North Carolina"
            string_val: "New Mexico"
            string_val: "New Mexico"
            string_val: "New Mexico"
            string_val: "South Ala."
            string_val: "San Diego"
            string_val: "Virginia"
            string_val: "Virginia"
            string_val: "Virginia"
            string_val: "Virginia"
            string_val: "Vanderbilt"
            string_val: "Vanderbilt"
            string_val: "VCU"
            string_val: "VCU"
            string_val: "VCU"
            string_val: "VCU"
            string_val: "VCU"
            string_val: "VCU"
            string_val: "Weber St."
            string_val: "Weber St."
            string_val: "Wisconsin"
            string_val: "Wisconsin"
            string_val: "Wisconsin"
            string_val: "Wisconsin"
            string_val: "Wisconsin"
            string_val: "Wisconsin"
            string_val: "Wisconsin"
            string_val: "Wisconsin"
            string_val: "Wisconsin"
            string_val: "Wisconsin"
            string_val: "Wisconsin"
            string_val: "Wisconsin"
            string_val: "Wisconsin"
            string_val: "Wisconsin"
            string_val: "Wisconsin"
            string_val: "Wisconsin"
            string_val: "Wisconsin"
            string_val: "Western Ky."
            string_val: "Western Ky."
            string_val: "West Virginia"
            string_val: "West Virginia"
            string_val: "Wyoming"
            string_val: "Wyoming"
            string_val: "Wyoming"
            string_val: "Xavier"
            string_val: "Xavier"
            string_val: "Xavier"
            string_val: "Xavier"
            string_val: "Xavier"
            string_val: "Xavier"
            string_val: "Xavier"
            string_val: "Xavier"
            string_val: "Arizona"
            string_val: "Arizona"
            string_val: "Arizona"
            string_val: "Arizona"
            string_val: "Arizona"
            string_val: "Arizona"
            string_val: "Arizona"
            string_val: "Arizona"
            string_val: "Arizona"
            string_val: "Arizona"
            string_val: "Arizona"
            string_val: "Arizona"
            string_val: "Arizona"
            string_val: "Arizona"
            string_val: "Arizona"
            string_val: "Arizona"
            string_val: "Arizona"
            string_val: "Arizona"
            string_val: "Arizona"
            string_val: "Arizona"
            string_val: "Arizona"
            string_val: "Arizona"
            string_val: "Arizona"
            string_val: "Arizona"
            string_val: "Arizona"
            string_val: "Arizona"
            string_val: "Arizona"
            string_val: "Ball St."
            string_val: "Ball St."
            string_val: "Bradley"
            string_val: "Bucknell"
            string_val: "Charlotte"
            string_val: "UConn"
            string_val: "UConn"
            string_val: "UConn"
            string_val: "UConn"
            string_val: "UConn"
            string_val: "UConn"
            string_val: "UConn"
            string_val: "UConn"
            string_val: "UConn"
            string_val: "UConn"
            string_val: "UConn"
            string_val: "UConn"
            string_val: "UConn"
            string_val: "UConn"
            string_val: "UConn"
            string_val: "Creighton"
            string_val: "Creighton"
            string_val: "Drexel"
            string_val: "Duke"
            string_val: "Duke"
            string_val: "Duke"
            string_val: "Duke"
            string_val: "Duke"
            string_val: "Duke"
            string_val: "ETSU"
            string_val: "Florida A&M"
            string_val: "Fresno St."
            string_val: "Georgia St."
            string_val: "Gonzaga"
            string_val: "Gonzaga"
            string_val: "Gonzaga"
            string_val: "Gonzaga"
            string_val: "Gonzaga"
            string_val: "Gonzaga"
            string_val: "Gonzaga"
            string_val: "Gonzaga"
            string_val: "Gonzaga"
            string_val: "Gonzaga"
            string_val: "Gonzaga"
            string_val: "Gonzaga"
            string_val: "Georgetown"
            string_val: "Georgetown"
            string_val: "Georgetown"
            string_val: "Seton Hall"
            string_val: "Seton Hall"
            string_val: "Seton Hall"
            string_val: "Seton Hall"
            string_val: "Harvard"
            string_val: "Indiana St."
            string_val: "Iowa"
            string_val: "Iowa"
            string_val: "Iowa"
            string_val: "Iowa"
            string_val: "Iowa"
            string_val: "Iowa"
            string_val: "Iowa"
            string_val: "Iowa"
            string_val: "Iowa"
            string_val: "Saint Joseph\'s"
            string_val: "Saint Joseph\'s"
            string_val: "Marquette"
            string_val: "Marquette"
            string_val: "Marquette"
            string_val: "Michigan"
            string_val: "Michigan"
            string_val: "Michigan"
            string_val: "Michigan"
            string_val: "Michigan"
            string_val: "Michigan"
            string_val: "Michigan"
            string_val: "Michigan"
            string_val: "Michigan"
            string_val: "Michigan"
            string_val: "Michigan"
            string_val: "Michigan"
            string_val: "Michigan"
            string_val: "Michigan"
            string_val: "Michigan"
            string_val: "Michigan"
            string_val: "Michigan"
            string_val: "Michigan"
            string_val: "Michigan"
            string_val: "Michigan"
            string_val: "Michigan"
            string_val: "Minnesota"
            string_val: "Ole Miss"
            string_val: "Ole Miss"
            string_val: "Missouri"
            string_val: "Missouri"
            string_val: "Missouri"
            string_val: "Missouri"
            string_val: "Missouri"
            string_val: "Missouri"
            string_val: "Missouri"
            string_val: "Missouri"
            string_val: "Missouri"
            string_val: "Morehead St."
            string_val: "Murray St."
            string_val: "Murray St."
            string_val: "Navy"
            string_val: "NC State"
            string_val: "NC State"
            string_val: "North Dakota St."
            string_val: "Niagara"
            string_val: "Norfolk St."
            string_val: "Oklahoma"
            string_val: "Oklahoma"
            string_val: "Oklahoma"
            string_val: "Oklahoma"
            string_val: "Oklahoma"
            string_val: "Oklahoma"
            string_val: "Oklahoma"
            string_val: "Oklahoma"
            string_val: "Oklahoma"
            string_val: "Oklahoma St."
            string_val: "Oklahoma St."
            string_val: "Oklahoma St."
            string_val: "Pittsburgh"
            string_val: "Pittsburgh"
            string_val: "Pittsburgh"
            string_val: "Pittsburgh"
            string_val: "Richmond"
            string_val: "Richmond"
            string_val: "San Diego St."
            string_val: "San Diego St."
            string_val: "Stanford"
            string_val: "Stanford"
            string_val: "Stanford"
            string_val: "Tennessee"
            string_val: "Tulane"
            string_val: "Tulane"
            string_val: "Texas A&M"
            string_val: "Texas A&M"
            string_val: "UCLA"
            string_val: "UCLA"
            string_val: "UCLA"
            string_val: "UCLA"
            string_val: "UCLA"
            string_val: "UCLA"
            string_val: "UCLA"
            string_val: "UCLA"
            string_val: "UCLA"
            string_val: "UCLA"
            string_val: "UCLA"
            string_val: "UCLA"
            string_val: "UCLA"
            string_val: "UCLA"
            string_val: "UCLA"
            string_val: "UNLV"
            string_val: "UNLV"
            string_val: "UNLV"
            string_val: "UNLV"
            string_val: "UNLV"
            string_val: "UNLV"
            string_val: "UNLV"
            string_val: "UNLV"
            string_val: "UNLV"
            string_val: "UNLV"
            string_val: "UNLV"
            string_val: "UNLV"
            string_val: "UNLV"
            string_val: "UNLV"
            string_val: "UNLV"
            string_val: "UNLV"
            string_val: "UNLV"
            string_val: "Utah"
            string_val: "Utah"
            string_val: "Utah"
            string_val: "Utah"
            string_val: "Utah"
            string_val: "UTEP"
            string_val: "Villanova"
            string_val: "Villanova"
            string_val: "Villanova"
            string_val: "Villanova"
            string_val: "Villanova"
            string_val: "Villanova"
            string_val: "Villanova"
            string_val: "Villanova"
            string_val: "Wake Forest"
            string_val: "Washington"
            string_val: "Washington"
            string_val: "Washington"
            string_val: "Wichita St."
            string_val: "Wichita St."
            string_val: "Wichita St."
            string_val: "Wichita St."
            string_val: "Wichita St."
            string_val: "Wichita St."
          }
        }
      }
    }
    node_def {
      name: "TensorSliceDataset/tensors/component_3"
      op: "Const"
      device: "/device:CPU:0"
      attr {
        key: "dtype"
        value {
          type: DT_INT64
        }
      }
      attr {
        key: "value"
        value {
          tensor {
            dtype: DT_INT64
            tensor_shape {
              dim {
                size: 3966
              }
            }
            tensor_content: "…"
          }
        }
      }
    }
    node_def {
      name: "TensorSliceDataset/tensors/component_4"
      op: "Const"
      device: "/device:CPU:0"
      attr {
        key: "dtype"
        value {
          type: DT_INT64
        }
      }
      attr {
        key: "value"
        value {
          tensor {
            dtype: DT_INT64
            tensor_shape {
              dim {
                size: 3966
              }
            }
            tensor_content: "…"
          }
        }
      }
    }
    node_def {
      name: "TensorSliceDataset"
      op: "TensorSliceDataset"
      input: "TensorSliceDataset/tensors/component_0:output:0"
      input: "TensorSliceDataset/tensors/component_1:output:0"
      input: "TensorSliceDataset/tensors/component_2:output:0"
      input: "TensorSliceDataset/tensors/component_3:output:0"
      input: "TensorSliceDataset/tensors/component_4:output:0"
      device: "/device:CPU:0"
      attr {
        key: "Toutput_types"
        value {
          list {
            type: DT_STRING
            type: DT_INT64
            type: DT_STRING
            type: DT_INT64
            type: DT_INT64
          }
        }
      }
      attr {
        key: "output_shapes"
        value {
          list {
            shape {
            }
            shape {
            }
            shape {
            }
            shape {
            }
            shape {
            }
          }
        }
      }
    }
    node_def {
      name: "BatchDatasetV2/batch_size"
      op: "Const"
      device: "/device:CPU:0"
      attr {
        key: "dtype"
        value {
          type: DT_INT64
        }
      }
      attr {
        key: "value"
        value {
          tensor {
            dtype: DT_INT64
            tensor_shape {
            }
            int64_val: 32
          }
        }
      }
    }
    node_def {
      name: "BatchDatasetV2/drop_remainder"
      op: "Const"
      device: "/device:CPU:0"
      attr {
        key: "dtype"
        value {
          type: DT_BOOL
        }
      }
      attr {
        key: "value"
        value {
          tensor {
            dtype: DT_BOOL
            tensor_shape {
            }
            bool_val: false
          }
        }
      }
    }
    node_def {
      name: "BatchDatasetV2"
      op: "BatchDatasetV2"
      input: "TensorSliceDataset:handle:0"
      input: "BatchDatasetV2/batch_size:output:0"
      input: "BatchDatasetV2/drop_remainder:output:0"
      device: "/device:CPU:0"
      attr {
        key: "output_shapes"
        value {
          list {
            shape {
              dim {
                size: -1
              }
            }
            shape {
              dim {
                size: -1
              }
            }
            shape {
              dim {
                size: -1
              }
            }
            shape {
              dim {
                size: -1
              }
            }
            shape {
              dim {
                size: -1
              }
            }
          }
        }
      }
      attr {
        key: "output_types"
        value {
          list {
            type: DT_STRING
            type: DT_INT64
            type: DT_STRING
            type: DT_INT64
            type: DT_INT64
          }
        }
      }
    }
    ret {
      key: "batchdatasetv2"
      value: "BatchDatasetV2:handle:0"
    }
  }
}
versions {
  producer: 27
  min_consumer: 12
}
